saved_models/best_model.pth (torch, 60644 bytes, 7 tensors)

enc.0.weight f4 [32, 3, 3, 3]
000000 97 62 ab bc 1b 87 54 be 06 18 49 3d 1e c7 80 3d
       -0.020921035 -0.20754664 0.049095176 0.062879786
000010 43 1c db bd 59 73 0c be 39 db 1b 3e e6 e6 40 3d
       -0.1069875 -0.13715877 0.15220346 0.047095202
000020 af 9d 1f be 24 d8 6d 3e 12 b6 58 bc 78 a7 ff bd
       -0.15587495 0.23226982 -0.013227003 -0.12483114
000030 2e c7 86 3e 24 23 91 3e 33 5a 92 bd 37 58 8e bd
       0.26323837 0.28347123 -0.071461104 -0.069504194
000040 80 88 80 3e 56 c8 99 3e 7a fe 8a be 12 2a 5d bd
       0.2510414 0.30035657 -0.27147275 -0.0539952
000050 0f 6f f8 bd 29 89 7e be b7 41 d1 3c 54 c6 9f bd
       -0.12130558 -0.2485701 0.02554403 -0.078015
000060 ae 22 04 bd 1d 3a 86 bd 3b 14 cf bd 55 b1 40 be
       -0.032259636 -0.06554053 -0.101112805 -0.18817647
000070 cc c2 e4 3b b8 de 8d bd 75 34 7f bd 36 7f c4 be
       0.0069812294 -0.06927246 -0.062305886 -0.38378304
000080 bf ae 7f be da fc 89 be 00 31 bd be a2 5b b7 be
       -0.24969004 -0.26950723 -0.36951447 -0.35812098
000090 92 c9 4b bd 8a a5 2f 3e 8b d8 14 3e 7b c1 3b 3e
       -0.04975278 0.17152992 0.1453573 0.18335526
0000a0 ae 1e 54 3e 31 57 0f 3d ad 95 c2 3d f1 2b 24 be
       0.20714828 0.03499526 0.09501205 -0.16032387
0000b0 49 2c 56 3e 97 7f e7 3d e1 cb 89 3c 29 94 58 3c
       0.20915331 0.11303633 0.01682085 0.013218918
0000c0 e7 18 20 3e fa b0 f4 3d 23 0c 1c bc cf 69 61 3e
       0.156345 0.11947818 -0.009524378 0.22013019
0000d0 c7 b3 51 3e 92 e1 26 3e 45 91 58 3e 92 ef 19 3e
       0.20478736 0.16296986 0.21149166 0.15032795
0000e0 22 87 90 3c 4f 3f 6a 3e 15 00 3e 3e 76 95 0e bd
       0.017642561 0.22875713 0.18554719 -0.034810506
0000f0 8c a3 2e 3e 05 fb e6 3d 72 28 93 3d 3b 6e 29 bd
       0.17054576 0.11278347 0.07185449 -0.04136489
000100 33 a0 af 3d f1 ee 97 be a1 7c 61 bd 99 2a 06 be
       0.085754775 -0.29674485 -0.055050496 -0.13102187
000110 86 08 c2 bd e4 6c aa bc f5 f2 ef 3c 93 d6 37 be
       -0.09474282 -0.020803876 0.029290656 -0.17952947
000120 a6 dd 33 bd ca 41 0c be fe f2 b7 bd 0b 41 40 be
       -0.043912552 -0.13696972 -0.08981894 -0.18774812
000130 1d 2d 56 be ab ed b5 3d fa 78 2f 3e b3 17 5e 3b
       -0.20915647 0.08883222 0.17135993 0.0033888638
000140 e2 2e 25 3e ab 03 fb 39 15 0f 79 bd c3 8a 7d 3e
       0.16131166 0.00047877184 -0.0608054 0.24759965
000150 36 74 7b 3e 82 c3 25 3d df 92 a3 3e e4 57 30 3d
       0.2455605 0.040469654 0.3194799 0.04305257
000160 5b 1a a7 3e 96 6d 11 bd e8 ac 0e 3e 0d 40 89 bd
       0.32637295 -0.0355049 0.13933146 -0.0670167
000170 7c af c1 3b 3a 7d 10 bd 7e 40 ae bd f4 8a 84 3e
       0.005910812 -0.035275675 -0.08508395 0.25887263
000180 44 2a 39 3e 84 d2 81 3e 9a 89 1d 3e fb f1 88 bd
       0.1808253 0.25355923 0.15384522 -0.06686779
000190 46 29 05 be ea cb 34 be 09 77 85 be a9 98 8a be
       -0.13004026 -0.17655912 -0.2606738 -0.27069595
0001a0 3c fa af be 51 37 9b be 27 34 bd be 98 54 a5 be
       -0.343706 -0.3031564 -0.36953852 -0.32291102
0001b0 71 21 56 bd 0f 44 53 bb 43 d2 56 be fe 9b 1e be
       -0.052277986 -0.003223661 -0.20978646 -0.15489194
0001c0 2c b7 89 3e f8 b5 33 3c 5a d6 57 3e 1c e2 38 3c
       0.26897562 0.010968678 0.21077862 0.011284377
0001d0 75 20 56 3e 4e 38 94 be cb ec d9 3d db d5 8f 3d
       0.20910819 -0.28949207 0.10640868 0.070232116
0001e0 88 10 fe 3d b9 e8 d4 bd 2f bd 6d 3e da 56 e8 bc
       0.12405497 -0.10395951 0.23216699 -0.028361727
0001f0 e3 ea cb 3d 25 11 e3 3c f4 a7 92 be b1 06 71 be
       0.099569105 0.027718136 -0.28643763 -0.23537709
000200 71 6a aa be 0e 18 76 be b4 fa fa 3d 2d d5 c1 bd
       -0.33284333 -0.24032614 0.12254849 -0.09464488
000210 eb 6d 49 bd 5e 23 5e 3b e8 d7 ba 3d df 2f 38 3e
       -0.04917709 0.0033895592 0.09123212 0.17987011
000220 67 4c 1b 3e 3f 62 21 be df fb fa bd 70 10 f9 bd
       0.15165864 -0.15760134 -0.12255072 -0.12161338
000230 75 48 2c 3d 7b fb ac 3d 92 ce a3 3c 98 f4 76 be
       0.042061288 0.084464036 0.019995961 -0.24116743
000240 bd 54 48 3e 7c b4 88 3d bd 64 47 bd 9a 44 3d 3e
       0.19563575 0.0667505 -0.048680056 0.184832
000250 04 3f 60 3e c7 46 17 bd 21 71 91 3d e3 64 18 be
       0.21899039 -0.036932733 0.07101656 -0.14882235
000260 f6 49 db bd ad 72 02 be 77 c8 35 3e 08 a9 00 3c
       -0.10707466 -0.12739058 0.17752253 0.0078528
000270 9f 4c ba 3d d4 50 05 3e b7 44 6f bd 7b 44 17 bb
       0.090966456 0.13019115 -0.05841514 -0.002308159
000280 4e e5 28 bd ba 55 86 be 43 36 2f 3e 45 d2 37 be
       -0.041234307 -0.2623728 0.17110543 -0.17951305
000290 b3 ed 2d be a9 37 c7 3e 81 61 a6 3d d1 88 aa 3a
       -0.16985206 0.38909653 0.08124066 0.0013010745
0002a0 26 fc d6 3e 97 68 f0 bd 61 02 89 be 30 95 20 be
       0.4198925 -0.11738699 -0.26759627 -0.1568191
0002b0 24 b8 a4 be 4c 8c c3 be d5 24 87 3e 6c 2e 37 bd
       -0.32171738 -0.38192976 0.26395288 -0.044722006
0002c0 65 b8 8c 3d cf ff 41 3e 16 82 22 3d da f0 af 3c
       0.06871108 0.1894524 0.03967484 0.021477152
0002d0 1c d2 20 bd ef 8b 34 be 49 ec 9d be b6 fa 51 3e
       -0.039262876 -0.17631505 -0.30844334 0.20505795
0002e0 75 aa 76 bd 64 db 0c 3e fe e6 83 3e 0a c2 66 3e
       -0.060221154 0.13755566 0.2576217 0.22534958
0002f0 de 2e 2d be ab 1e ca 3c be df ab bd 7a a7 c1 3d
       -0.1691241 0.024672827 -0.08392285 0.09455772
000300 1b 32 94 bd 5e db b0 3d 7e 97 67 3e 01 f5 3c 3d
       -0.07236119 0.08635591 0.22616383 0.04613209
000310 5d 92 8c 3e 8b 4f 34 3e d4 4a 10 be 41 41 11 be
       0.27455416 0.17608468 -0.14091045 -0.14185049
000320 f4 2f 5a be d9 bb 35 be 00 0c d0 3c 0c dd b7 bd
       -0.21307355 -0.1774744 0.025396347 -0.08977708
000330 00 96 09 3e 95 c7 e4 3d be b6 a2 bd fd 24 90 3c
       0.13436127 0.1117088 -0.079450116 0.017595762
000340 f2 c1 55 be 14 b3 c2 3d 7a 55 58 3d 66 18 3d be
       -0.20874766 0.09506813 0.05281589 -0.18466339
000350 46 2b 10 3e 89 d3 b9 3c 4c f5 f5 3d 86 45 2d 3d
       0.14079008 0.022683876 0.12009677 0.04230263
000360 80 b7 fa bd 72 11 6c 3e 96 33 d9 3d 1d a9 aa 3e
       -0.12242031 0.2305353 0.10605542 0.33332148
000370 70 ed 70 3e d6 29 99 3e e2 64 6f 3e cc 7f a6 3e
       0.23528075 0.2991473 0.23378327 0.32519376
000380 2a 9d 1e 3d 7a a1 4c 3d 69 58 56 bd 24 05 85 be
       0.038724102 0.049958684 -0.05233041 -0.25980484
000390 1c 54 13 be 01 0a 02 be 47 f9 15 3e c2 fb 05 be
       -0.14387554 -0.12699129 0.14645873 -0.13084319
0003a0 16 90 c5 3c 35 88 01 bd 0b ab 83 bd fc 80 33 3e
       0.024116557 -0.031624038 -0.06429108 0.17529672
0003b0 40 64 22 bd 3b d7 3e bd 86 a7 8c 3d 3e fa f9 bc
       -0.039646387 -0.04659198 0.0686789 -0.030514833
0003c0 29 08 c6 3d 7c ef ef bd 4e 05 b5 3c d4 9b 9c 3e
       0.09669525 -0.117156 0.022097256 0.30587637
0003d0 09 72 a3 3e 35 4c f8 3d 84 e7 10 bd c9 88 f3 3c
       0.3192294 0.1212391 -0.03537704 0.02972831
0003e0 2d 01 f3 3d dc 42 1a 3d 73 b0 11 3e 85 65 5c 3e
       0.11865459 0.03766142 0.14227466 0.21523102
0003f0 1d 6d 86 3e 9b 1b 82 3e 5d 00 26 3d f6 3a 98 3d
       0.26255122 0.25411686 0.04052769 0.07433121

enc.0.bias f4 [32]
000000 8a 90 fc 3e 9b 9e 21 bf 75 ec 88 be 58 03 fc 3d
       0.49329025 -0.6313264 -0.26742902 0.12305325
000010 b2 79 5f be a3 37 11 bf 05 40 82 be 86 e2 4c 3f
       -0.21823767 -0.5672552 -0.25439468 0.8003315
000020 33 62 3b 3f 54 ed 33 3e 75 b5 c8 be 6f fc c4 be
       0.73196715 0.17571002 -0.3920094 -0.38473842
000030 5d d8 c5 be 36 a8 59 be dc 3c 4e be 4c 5a 98 3d
       -0.38641635 -0.21255574 -0.20140404 0.07439098
000040 3a ed 35 bf 11 f3 ed be fc 30 52 3f 2c d8 28 bf
       -0.71065104 -0.46474507 0.82105994 -0.6595485
000050 2d 89 30 3e 07 9b b6 be 78 f4 98 3d ef 54 54 3e
       0.17239828 -0.3566515 0.07468504 0.20735525
000060 54 7d ea 3e 78 69 57 bf b6 47 fc 3e 2f 3e 62 bc
       0.45798743 -0.8414531 0.4927346 -0.013808771
000070 81 d8 85 be 96 cf 7d bf fe 5e 90 3e a6 87 a8 be
       -0.26141742 -0.99144876 0.28197473 -0.32915992

enc.2.weight f4 [32, 32, 3, 3]
000000 b1 c3 9b bd 85 ad 4e bd b0 f6 fc bd 2d 0e a0 bb
       -0.076056845 -0.05045845 -0.123517394 -0.0048845024
000010 83 ae b9 bd a1 21 18 be e5 e0 fc bc 7f 58 34 bc
       -0.090664886 -0.14856578 -0.030868957 -0.011007427
000020 62 76 07 bd df e9 17 be ce cf a1 bd ab 67 f6 bd
       -0.033071883 -0.14835308 -0.07900964 -0.12031492
000030 5b ea 81 bd 0e 46 c4 bd 2b 17 82 bd 93 df 3a be
       -0.06343528 -0.09583674 -0.06352075 -0.1824935
000040 d8 05 9d bd c8 a8 d9 bd a5 62 7c be d6 bd 3f be
       -0.0766713 -0.106278956 -0.24647005 -0.1872476
000050 c8 ef 5e be 83 5b 94 be 14 2e 57 be b1 f7 5e be
       -0.21771157 -0.28976068 -0.21013671 -0.21774174
000060 23 09 95 be 9c df 9f be 21 3f 6d be 15 8c 8c be
       -0.29108533 -0.31225288 -0.23168613 -0.27450624
000070 ad 2d 68 be 3b 8e 81 be 1a 96 8b be 02 aa 88 be
       -0.22673674 -0.25303826 -0.27262956 -0.26692206
000080 c7 29 98 be dd e0 5f be 14 ef 5c be 7a e3 92 be
       -0.29719374 -0.21863122 -0.21575576 -0.28689176
000090 b5 05 28 be 63 21 0d be d6 e1 1f be 94 81 04 be
       -0.16408427 -0.13782267 -0.15613493 -0.12940055
0000a0 82 c0 31 be 30 6b 68 be de 87 59 be 8d 70 79 be
       -0.17358592 -0.22697139 -0.21243235 -0.24359341
0000b0 2d 45 42 be 00 41 d5 bc 1a 62 bd bb 8d ac d4 bd
       -0.18971701 -0.026031971 -0.005779517 -0.10384474
0000c0 4b e0 2c 3c f6 9f 82 bd 4e 0f ca bb 3f db c8 bd
       0.0105515225 -0.063781664 -0.0061663752 -0.09807443
0000d0 7d b1 e6 bc 67 ab dd bd 4d 42 f9 bd c4 4e 56 bb
       -0.028160805 -0.10823708 -0.12170849 -0.0032700757
0000e0 06 2d 25 3d bb 14 13 be c7 29 04 bd 23 03 a7 bd
       0.04032614 -0.14363377 -0.032266404 -0.08154895
0000f0 4b 48 b2 bd 0a 93 9d bd 0d 43 8a 3c 49 6a 7f be
       -0.08705195 -0.07694061 0.016877675 -0.24942888
000100 b9 bc 93 be 62 ea 94 be fe 48 b1 be 2e 8c 9e be
       -0.2885492 -0.2908507 -0.34626 -0.30966324
000110 b9 8d 78 be f1 f3 a2 be ba 34 75 be d8 99 89 be
       -0.24272813 -0.31826738 -0.23945895 -0.26875186
000120 97 51 8f 3c 80 c0 a6 bc 10 f6 b7 bb b2 92 a7 bd
       0.01749496 -0.020355463 -0.0056140497 -0.08182277
000130 f0 39 ac 3c 3d 24 14 bd 0c 8e 08 bd 51 3d a5 bc
       0.02102372 -0.036167372 -0.03333859 -0.02017084
000140 05 49 24 bd 4f b8 fd be d2 6a f5 be 8c a5 f9 be
       -0.0401087 -0.4955468 -0.4793306 -0.48759115
000150 9c db ab be 1a ba bf be 2e b9 c0 be b5 a1 8b be
       -0.33565986 -0.37446672 -0.3764128 -0.2727181
000160 89 34 87 be d8 af 94 be 72 2c 61 3d dc 90 5c 3d
       -0.2640727 -0.29040408 0.054974027 0.053849086
000170 3a fa 63 bd 2e 13 a8 3d 33 23 f4 3c b4 bd 88 3a
       -0.055658557 0.08206783 0.02980194 0.0010432512
000180 c9 b1 58 3d 5a e1 90 3d 92 c0 08 bd 8e b4 c6 bc
       0.052903924 0.070742324 -0.033386774 -0.024256017
000190 98 e4 82 bd 8c f2 be bc 52 0b 65 bd 39 f8 f8 bc
       -0.06391257 -0.023309015 -0.055919 -0.0303918
0001a0 20 e3 c4 bb e0 8e 43 bc 55 eb 81 3c c0 dd 30 bc
       -0.0060085207 -0.0119359195 0.015859285 -0.010795057
0001b0 88 6c 2b 3e 5a b1 2a 3e 2c 3a 87 3e 3a c7 08 3e
       0.1674062 0.16669217 0.2641157 0.13357249
0001c0 96 58 27 3e 03 25 02 3e 65 39 1a 3e af c7 30 3e
       0.16342387 0.12709431 0.15060957 0.17263673
0001d0 40 c4 19 3e a5 1a 5c 3d 32 e1 25 3b 87 49 88 bc
       0.1501627 0.053736348 0.0025311229 -0.016636623
0001e0 fc fd a2 bc 9d a0 c6 3c a9 9c c8 bc 15 a7 34 bd
       -0.0198965 0.024246508 -0.024488764 -0.044104654
0001f0 de 7c 8f bc 97 17 6f 3c 93 7a 1b 3d b1 8e 0d bd
       -0.017515596 0.014593027 0.037958693 -0.03455991
000200 63 5c f4 3c ff a1 89 3d 27 e7 9b 3d 36 4d b9 bc
       0.02982921 0.067203514 0.07612448 -0.022619825
000210 e1 92 cd 3d 22 90 8a 3c 20 2b af 3d a2 b4 78 be
       0.100377806 0.016914431 0.08553147 -0.24287656
000220 73 d1 24 be e4 1b 4a 3d 38 8b 86 be 66 5d 53 be
       -0.16095524 0.049343005 -0.2627809 -0.20641097
000230 ec 53 a7 3d 67 21 b2 bd 24 3e 23 be 65 60 eb 3d
       0.08170304 -0.08697777 -0.15941674 0.11492995
000240 8c 2e 0c bd 21 25 c4 3b 68 78 a2 bd e4 fa 3b bd
       -0.034224078 0.0059858714 -0.07933122 -0.045893565
000250 7f 8f ad bc ed b1 50 3b e0 0f 6f 3d c2 c4 78 3d
       -0.021186588 0.0031844333 0.05836475 0.060734518
000260 1b 01 91 3d 6d 37 1b bd 1e 3c 6e bc 3b 2f c2 bc
       0.07080289 -0.037894655 -0.0145407 -0.023704162
000270 e7 bc 5b bc c5 ac 0a bd 24 2f 4c bd 56 9a 91 bd
       -0.013411737 -0.033856172 -0.049849644 -0.07109515
000280 9a b4 61 bd 8b ca 34 bd 5c ca e3 bd 5a 93 82 be
       -0.055103876 -0.044138473 -0.11122581 -0.25503045
000290 14 fb 50 be ed 78 ad bd dc 90 61 be a8 39 7e be
       -0.20408279 -0.084703304 -0.22027916 -0.24826682
0002a0 c8 50 d9 bd ea d2 83 be c0 01 4c be 6b fc 84 bd
       -0.10611111 -0.25746852 -0.19922543 -0.064934574
0002b0 78 8f 00 bd 61 ad 80 bb 58 3c fe 3c e6 08 fa bc
       -0.031386822 -0.0039269184 0.031034634 -0.030521821
0002c0 12 b1 c8 bc e4 49 90 bd 22 60 58 3d 8f 8e 9b 3d
       -0.024498496 -0.070453435 0.052826054 0.0759555
0002d0 06 ef 75 be 2c 8d 44 be 3e ed 6e be c3 a1 6e be
       -0.24016961 -0.19194478 -0.23332688 -0.23303895
0002e0 c3 e2 64 be 7c ce 7c be 5f 8e 75 be 91 0b aa be
       -0.22352128 -0.24688143 -0.23980092 -0.3321195
0002f0 d9 c0 90 be 80 b1 6c 3c 60 13 94 bd 11 c0 42 bd
       -0.2827213 0.014446616 -0.07230258 -0.04754645
000300 73 86 90 3c 45 6a b7 bc a7 f1 24 bd 18 64 da 3c
       0.017642235 -0.02238954 -0.04026952 0.026659057
000310 6a e6 48 bc 05 4a cc ba 79 90 ab 3d 7a b2 0e 3d
       -0.012261966 -0.0015586024 0.08377165 0.034838177
000320 db fd e9 3d 91 b4 0e be 7c 74 86 bd d3 80 4d bd
       0.11425372 -0.13936068 -0.065651864 -0.050171684
000330 af 84 fa bd e8 5a ca bd 08 a9 30 bd 08 2a f4 bc
       -0.12232339 -0.0988062 -0.04312995 -0.029805198
000340 28 f2 9a bb 8c c5 8a bd f9 79 f4 bc 01 97 09 bd
       -0.0047285743 -0.0677596 -0.029843317 -0.033591274
000350 a9 e6 93 bd 72 4d cd bd 0c e3 6d bd 64 41 9b bd
       -0.07221729 -0.10024537 -0.058077857 -0.07580832
000360 9f 74 17 be d6 63 29 be e7 6d b7 bd 07 a1 4f be
       -0.14790581 -0.1654199 -0.08956509 -0.20276271
000370 42 6d 36 be f1 bc 42 be ec 89 ee bc fe ef 99 bd
       -0.17815116 -0.19017388 -0.0291185 -0.07516478
000380 8f 38 d6 bd ee da eb bd cf 86 88 bd c3 fa 8d bd
       -0.104600064 -0.11516367 -0.06666338 -0.069325946
000390 99 51 a2 bd db a9 cb bd a0 ca 53 ba ee 3a df bc
       -0.0792572 -0.09944507 -0.00080792047 -0.02724978
0003a0 9f cc b3 3b db 5b d6 bd 6c 58 28 be b7 07 58 be
       0.005487039 -0.10466739 -0.1643998 -0.21096693
0003b0 52 36 1f be fc 5a 2c be d6 25 29 be d1 fb 6c be
       -0.15548065 -0.16831583 -0.1651834 -0.23142935
0003c0 7f 63 8d be 56 f7 3a be f6 ea 5f be 9f 2c b3 bd
       -0.27614972 -0.18258414 -0.21866974 -0.08748745
0003d0 e7 ae 5d be a3 1e 49 be b3 1d 5b bd 86 b3 1c be
       -0.21648751 -0.19640593 -0.05349512 -0.15302858
0003e0 f4 43 45 be 7f bd 77 bd 3b ba 65 be 38 28 a4 bd
       -0.19264203 -0.060483452 -0.22434323 -0.080154836
0003f0 33 db b6 bc 4c 2e 27 bd 22 82 fb bc 26 2f 8a bc
       -0.02232132 -0.040815637 -0.0307017 -0.016868185

enc.2.bias f4 [32]
000000 4b 49 f0 be 60 17 11 bf 10 2c af 3e 36 2f 97 3e
       -0.46930918 -0.5667629 0.34213305 0.29528207
000010 95 a6 f3 be bf b4 05 3f 24 4e 8b 3b 5a bc 95 3d
       -0.4758803 0.5222892 0.0042512584 0.07311316
000020 7a 0f 47 3f 48 7a d0 be 57 82 0d 3f 8d 15 05 bf
       0.7775799 -0.40718293 0.5527701 -0.5198601
000030 28 a5 10 bf b7 d1 32 3f 9f c7 b6 3e 43 16 35 3f
       -0.5650201 0.6985125 0.35699174 0.70737094
000040 f7 a5 95 be 96 cb ba 3d 43 ce a4 3d 48 62 c6 3e
       -0.29228184 0.09120862 0.08047154 0.38746858
000050 4b aa dd 3e 3a bd 03 3f 78 6b 01 bf 71 f4 11 3f
       0.43293986 0.5146061 -0.5055461 0.57013613
000060 c0 d7 07 3f a1 e5 8c 3e ce cf d1 3e 25 00 cf bc
       0.53063583 0.27518943 0.40978855 -0.025268624
000070 43 e2 f4 be 79 c9 dd 3e 71 d3 09 bf 53 52 1d 3f
       -0.47828874 0.43317774 -0.5383826 0.6145374

dec.0.weight f4 [32, 32, 2, 2]
000000 a5 9f 88 3c 2a 5b ed 3c c3 9c 53 3d 84 d9 ba 3d
       0.016677687 0.028974134 0.05166317 0.09123519
000010 25 1b 23 bd 38 28 3a 3d 42 b1 f4 bc da cc 52 be
       -0.03982081 0.04544851 -0.02986968 -0.20585957
000020 88 b9 a9 bc 70 f2 62 bd f1 31 a8 bb 8f 09 19 bc
       -0.020718351 -0.055406988 -0.0051329066 -0.009340658
000030 8f 25 24 3d e4 b4 93 bd 81 ce 35 be 43 71 e1 bd
       0.04007488 -0.072122365 -0.17754556 -0.11007931
000040 3b b0 e4 bd 90 8d 7c bd e7 b8 6e 3d 4c 95 15 3d
       -0.11166426 -0.061658442 0.058281805 0.036519334
000050 c2 45 70 bd ee f2 6d bd 6b 5f 58 3c 0d 61 12 3d
       -0.058660276 -0.058093004 0.013206343 0.035737086
000060 f4 11 0f bd 61 b8 1e be 49 7a fb 3c c2 0c 07 be
       -0.03492923 -0.15500022 0.030697959 -0.1318846
000070 7a 7c f2 bd e3 6c 89 3d 62 81 cd bd 05 1b 85 bd
       -0.11840148 0.067102216 -0.100344434 -0.06499294
000080 67 1e 3b 3d 54 9e ab bc 61 c6 3c bc 61 7d 60 3d
       0.04568329 -0.02094952 -0.011521907 0.05480707
000090 22 e4 e9 bc d2 28 56 bc 8d 88 aa 3c 36 0d 75 bd
       -0.028551165 -0.013071256 0.020817066 -0.059827052
0000a0 78 ba 17 bd 08 39 31 bd e4 52 e5 bd f9 57 b5 bd
       -0.037043065 -0.04326728 -0.11197451 -0.0885467
0000b0 e0 62 c2 3d c1 20 59 bd 62 11 47 bd 4f 46 0d 3d
       0.09491515 -0.053009752 -0.048600562 0.03449088
0000c0 10 46 22 3d 3a 42 af bd a4 de cd 3c de c6 27 3d
       0.039617598 -0.085575536 0.025130577 0.04096114
0000d0 a8 f5 68 3d da f8 e8 3d 6d 12 31 3d dc ba 9d 3d
       0.0568749 0.1137559 0.043230463 0.07701656
0000e0 31 1e 3c 3b e4 63 ae bd eb 57 e7 3d 90 57 e0 bc
       0.002870452 -0.085151464 0.11296066 -0.027385503
0000f0 d3 52 b4 3d 3b e7 14 3c 58 62 36 bd d6 98 a1 bd
       0.0880486 0.009088333 -0.04452738 -0.07890479
000100 09 28 b4 3c 66 e4 11 bd 73 fe 51 bd 69 c8 0e bd
       0.021991747 -0.03561821 -0.051268052 -0.034859095
000110 35 ed 4a bd 8f 3c 74 3d 8b e1 25 be 31 12 0d bc
       -0.049542625 0.059628066 -0.16199319 -0.008610294
000120 be 75 e2 be cc 2e 46 bc ad 56 33 bd 2c f6 e5 bd
       -0.44230455 -0.012096118 -0.043783832 -0.11228594
000130 d5 49 5c bd 05 3d 37 3d e5 23 7f bd 8e ff 8b bb
       -0.05378135 0.044735927 -0.06229009 -0.004272408
000140 2d fd a9 bb 91 08 ca bb b5 d3 c5 ba f3 95 32 bd
       -0.0051876516 -0.006165572 -0.0015093001 -0.043600034
000150 00 a9 3c bd 05 3e d3 bd 02 5a a0 3d eb e2 9c bc
       -0.04605961 -0.10314564 0.07829668 -0.019151172
000160 62 b0 04 bd 2f 8f e2 bc d7 87 8a bc 27 e6 0f 3e
       -0.032394774 -0.027656166 -0.016910477 0.1405264
000170 52 58 aa 3d 0d 4e 80 3d 3a 65 72 3d c1 b9 75 bd
       0.08317627 0.06264887 0.05917857 -0.0599916
000180 2c ae 9b bc 9e 0d 52 3c cd 80 95 bd 56 60 1a 3d
       -0.01900395 0.012820629 -0.072999574 0.03768953
000190 2c d6 8f bd 9a 29 49 b9 b5 24 96 3d 50 57 8a bc
       -0.07023272 -0.00019184352 0.0733122 -0.016887337
0001a0 8d 13 a3 3d 76 5e 9e 3d 21 56 52 3d c6 54 ae 3b
       0.079627134 0.07732861 0.05135167 0.0053201644
0001b0 df b6 23 bc ee fd 83 be b4 0a 68 3d a6 53 1e 3d
       -0.00999233 -0.2577967 0.056650832 0.038653992
0001c0 c6 47 90 3c 9e 4a f4 3d 09 20 df bc 8b da 0b bd
       0.01761235 0.119282946 -0.027236955 -0.034143966
0001d0 08 07 9e 3a 91 f1 a5 bc 23 c3 42 bd 19 5b 67 3c
       0.0012056539 -0.02025679 -0.047549378 0.0141208405
0001e0 7a b0 61 3d ca 33 ec bc 3f e1 17 be cf d2 a0 3d
       0.05509994 -0.028833289 -0.14832018 0.078527085
0001f0 d4 a2 a7 3d d3 de fb 3d ce 81 33 be 2e e4 87 3d
       0.08185354 0.1229836 -0.17529985 0.06635319
000200 b9 6a 56 3e cc 2d 57 3d a2 24 3b 3e af 65 68 3e
       0.20939149 0.05253391 0.18275693 0.22695039
000210 4b e6 e1 3d 42 a4 5f bd f6 0e cd 3d 4c 15 4f 3e
       0.11030253 -0.054600008 0.10012619 0.20222968
000220 40 43 81 bd 12 d7 a2 bd 4c 81 04 bd a5 e9 06 be
       -0.06311655 -0.07951178 -0.03234987 -0.13175066
000230 90 63 59 3e b7 07 1c 3f f1 0f 87 3e 4f 5d 85 3d
       0.21229386 0.6094927 0.2637935 0.06511938
000240 db e5 81 bd b2 2d f9 3d 31 bc 2c 3e 50 a3 44 3e
       -0.063426696 0.12166919 0.16868664 0.19202924
000250 1e 68 11 3e 3c 42 d4 3d 1e 9b 05 be 44 3e 16 be
       0.14199874 0.10364196 -0.13047454 -0.1467219
000260 11 4d 6c bc a7 f3 b9 bd 9f ff 51 bd fa 58 e1 bd
       -0.014422671 -0.09079676 -0.05126917 -0.11003299
000270 28 03 d5 3e 3b 9a 34 3e 19 7c 90 3e 45 78 8a 3e
       0.4160397 0.17636959 0.2821968 0.27044883
000280 36 9a 2d 3e a3 18 05 3e c7 b8 00 3e 7b d0 94 3e
       0.16953358 0.1299768 0.12570487 0.29065308
000290 2a 80 1e 3e 05 c0 53 bd 8e 23 a4 bc ed 0e 98 3d
       0.15478578 -0.051696796 -0.020036485 0.07424722
0002a0 11 32 03 3e 5d b3 9e 3d 8d b7 db bc 23 02 e6 bd
       0.12812068 0.077490546 -0.026820922 -0.11230876
0002b0 2d 56 27 3e ef aa d4 3d 81 70 16 bd 63 1a 89 3d
       0.16341467 0.103841655 -0.036728386 0.06694486
0002c0 e6 77 ee bd be ae 26 bc dd 95 d6 bd 34 24 59 3e
       -0.116439626 -0.010173498 -0.10477803 0.21205217
0002d0 9e ad f6 3d e9 f9 fe 3d 65 44 79 3e 45 34 65 3d
       0.120448336 0.1245001 0.24342497 0.05595805
0002e0 8d 35 6e bd 6d 47 fa 3d d8 b5 72 3e a5 25 17 bd
       -0.05815654 0.12220655 0.2370218 -0.036901135
0002f0 43 b3 92 3d da b1 61 bb 53 38 52 3e f7 5b ce bd
       0.07163098 -0.0034438283 0.20529298 -0.10076135
000300 a2 d9 56 3e e3 08 72 3d fe 91 83 3d 7b 8b 72 3d
       0.20981458 0.059090506 0.0642433 0.05921505
000310 90 61 a3 3e ce 8f 98 bc b1 a6 28 3e 9c ef 18 3d
       0.31910372 -0.018623259 0.16469838 0.037337884
000320 ee 1f 33 be 26 d9 aa 3e 7b 3c 91 3e 15 9d 00 3e
       -0.17492649 0.33368796 0.28366455 0.12559922
000330 0d 99 88 3e 00 36 5a 3e ab 67 62 3e a1 7e 14 bd
       0.26679268 0.21309662 0.22109859 -0.036253575
000340 22 39 08 3e ce 87 8e be e0 b7 b3 3d 1b 89 70 bf
       0.13303044 -0.27837986 0.08775306 -0.93959206
000350 f5 e5 4d 3e 3b 74 25 bd 77 1e 93 3d 41 35 71 3e
       0.20107253 -0.04039405 0.07183545 0.23555471
000360 1c 65 12 3e 91 e7 24 3c bb 15 49 3e 5e 9d 36 3e
       0.14296383 0.010064975 0.19637196 0.17833468
000370 e7 f9 08 3e 7e ac 9c 3c 22 fd 3e bd 2b 53 32 3d
       0.1337658 0.01912522 -0.046628125 0.043536346
000380 fb bb 2a be cc 4a 96 3d de 7f 68 3e b4 83 37 bd
       -0.16673271 0.07338485 0.22705027 -0.044803336
000390 7a 2b 4a 3e e0 a4 92 3e 39 4e d9 bc 62 46 37 3e
       0.19743147 0.28641415 -0.026526557 0.17897943
0003a0 40 9e 53 3d 68 80 36 3e 32 4b 18 be 4f 05 06 be
       0.05166459 0.1782242 -0.14872435 -0.13087963
0003b0 7c a3 86 3e fc 0d 69 be be ac 44 3e 71 e5 a1 3e
       0.26296604 -0.22759241 0.19206521 0.31620362
0003c0 c9 cd 02 3d 5a 10 81 bd 84 68 a8 bc dd f6 c3 3d
       0.031934533 -0.06301947 -0.02055765 0.0956857
0003d0 f8 f5 4c bd 5e e8 54 3e 81 b5 5c 3e 52 6e 42 3e
       -0.05003926 0.20791766 0.21553613 0.18987396
0003e0 d0 cc 8a 3b b4 b1 00 bd 67 f0 f4 bd 9d 86 86 bd
       0.0042358413 -0.03141947 -0.119599156 -0.06568644
0003f0 98 7a ad 3d 04 34 4d be bc 78 8d be ab ca 16 3d
       0.084706485 -0.20039374 -0.27631176 0.036814373

dec.0.bias f4 [32]
000000 bc cd 43 be c0 f7 35 3f c1 a8 98 be 69 7f 06 3f
       -0.1912145 0.7108116 -0.2981625 0.5253816
000010 2a f0 08 3f f7 1f b3 be 41 d3 e2 bd cf ff e7 3e
       0.5349146 -0.34985325 -0.1107545 0.45312354
000020 04 fe 80 be 72 9b 1c 3f 34 72 0b 3f 31 fa 07 bf
       -0.251938 0.6117469 0.54471135 -0.53116137
000030 45 8d e5 be a4 6d 00 3f a3 06 ad be 84 de 0b 3f
       -0.44834343 0.501673 -0.33794126 0.54636407
000040 79 a3 20 3f 96 45 fc 3e a2 dd 24 bf fa dd 55 be
       0.6274944 0.4927184 -0.64400685 -0.20885459
000050 43 66 f8 be e1 c9 a9 be 4f 4a 7f be 41 89 c7 be
       -0.4851552 -0.33161834 -0.2493069 -0.38971904
000060 03 a0 2e 3f 21 52 b0 be d1 b4 9b be 61 e6 64 be
       0.6821291 -0.3443766 -0.3041139 -0.22353508
000070 bc 7c 35 3f 05 f3 c7 be 9f 77 db be 4b 94 2f 3f
       0.70893455 -0.39052597 -0.428647 0.6858565

dec.2.weight f4 [1, 32, 1, 1]
000000 c1 91 4a be 5d 70 69 3e 80 66 b0 bd d4 8d cb 3d
       -0.19782163 0.2279677 -0.086133 0.09939161
000010 17 97 35 3e ea c8 32 bd 8f 21 c6 3b a3 b8 c7 3d
       0.17733417 -0.043648638 0.006046481 0.097520135
000020 04 9e cc bd 2d ab 06 3e 2e c7 4b 3e b9 43 fe bd
       -0.099910766 0.13151236 0.199002 -0.12415261
000030 c4 cd cd bc 81 fa 50 3e 05 9a 4e be cc b1 3d 3e
       -0.02512253 0.2040806 -0.20175941 0.18524855
000040 0a d7 32 3e cb 66 9d 3d 5b a4 7c be 88 a3 47 be
       0.17464843 0.07685622 -0.24672072 -0.19495976
000050 c7 66 c4 bd 4b 10 cd bd 66 25 e5 bd 46 d3 4f bd
       -0.09589916 -0.10012873 -0.11188774 -0.050738595
000060 11 8f 84 3e db 61 01 be a5 7c 5c be 4e 71 46 be
       0.258904 -0.12634985 -0.21531923 -0.1937916
000070 36 e8 68 3e c7 4b 1d be bf e9 40 be e8 19 64 3e
       0.22744831 -0.15360938 -0.18839167 0.22275507
