saved_models/cloud_seg_model.pth (torch, 60704 bytes, 7 tensors)

enc.0.weight f4 [32, 3, 3, 3]
000000 3b 59 91 be 49 4a c7 3e 31 12 5a 3f 4c 54 0a bf
       -0.2838839 0.38923863 0.8518401 -0.54034877
000010 28 70 70 be a4 57 1f 3f b5 08 2c bf b5 72 89 be
       -0.23480284 0.62243104 -0.67200786 -0.26845327
000020 68 82 e8 3d ae ae 80 be 91 76 6c 3d 57 71 51 3f
       0.11352998 -0.2513327 0.05773026 0.8181357
000030 c5 6c b9 be 25 47 d8 bd a7 29 06 3f 47 77 de be
       -0.36215797 -0.10560445 0.52407306 -0.43450376
000040 2d 1c a0 be 3e d8 95 3d 3a d5 8f 3d 20 ad 91 3c
       -0.31271496 0.073166355 0.070230916 0.017782748
000050 51 fc 95 3e f2 f3 38 be 93 c2 94 3c 99 24 38 bc
       0.29294065 -0.18061808 0.018159186 -0.011239194
000060 29 5e 72 3c e8 d0 b7 bd 19 be f4 bd 49 c0 cb 3e
       0.014792957 -0.089753926 -0.11950321 0.3979514
000070 a3 a6 1b 3f 4d 9f a8 3e 6c 82 7c 3e 3f fe 51 3e
       0.6080114 0.32934037 0.24659127 0.20507143
000080 14 81 42 3e 4c b2 b5 bd 29 b3 e6 bd b2 10 ea 3c
       0.18994552 -0.08871898 -0.11264641 0.028572414
000090 bd d7 94 bd 98 50 65 3e ba fc 80 3d 45 c4 d6 be
       -0.07267711 0.22394025 0.06298204 -0.41946617
0000a0 73 50 40 be f6 d6 c1 be e5 9e 8c be d2 38 f1 bd
       -0.18780689 -0.37859315 -0.27464977 -0.11778416
0000b0 29 bc aa be 6b 43 35 3e cc 69 98 3e 6e 1f 59 3e
       -0.3334668 0.17701499 0.29768217 0.21203396
0000c0 96 08 1f be b1 22 fa bd a5 82 b2 3d ef a1 1d be
       -0.15530619 -0.12213648 0.08716325 -0.15393804
0000d0 63 1d 9e bd 5f 04 70 be 1c 61 66 be ad aa 0e 3e
       -0.07720449 -0.23439167 -0.22497982 0.13932295
0000e0 89 5a c9 bd 80 20 b2 bc 89 b0 48 3e 43 a1 9b 3e
       -0.09831721 -0.021744013 0.19598593 0.3039647
0000f0 5c b0 99 3c d3 b8 70 3e 9c 6f ad 3e 33 ea 09 bd
       0.018760853 0.23508005 0.33874214 -0.033670615
000100 8d 4c 18 be 80 15 b3 bd 1f 6c 8e be 66 30 2f be
       -0.14872952 -0.08744335 -0.27816865 -0.17108306
000110 0c 93 70 be 4f f5 e7 3c 40 06 28 3e 6b 61 f2 3d
       -0.23493594 0.028315214 0.16408634 0.11834987
000120 e8 f0 79 be 91 f1 83 be 75 8f d2 bd d6 a4 25 3d
       -0.24408305 -0.25770238 -0.102812685 0.040440403
000130 be f0 e3 3d 2d 1f 7f 3d d6 26 63 3e f0 e4 89 bc
       0.11129902 0.06228559 0.22182783 -0.016832799
000140 9a ea 2b 3d 1c b7 67 3f 13 a8 b4 3e 09 2a f1 3e
       0.04197178 0.9051378 0.3528448 0.47102383
000150 3c 30 11 3e f0 87 8e be 10 5f 31 be 65 15 96 be
       0.14178556 -0.27838087 -0.1732142 -0.29313198
000160 ca a0 d1 be 6c bd 43 bf 5b c3 24 3f 70 eb da 3e
       -0.40942985 -0.7646091 0.6436059 0.4275775
000170 32 cd f6 3d 0f c4 88 3e 79 6b 2a be 3d 75 57 be
       0.12050857 0.2671208 -0.1664256 -0.21040817
000180 6a 1e e9 bd d7 50 d4 be 8c 56 fb be 27 6e 03 3e
       -0.11382754 -0.41467926 -0.49089468 0.12834989
000190 0c 19 46 3e 64 e4 08 3e 22 24 3d be c3 0e 3f b8
       0.19345492 0.13368374 -0.18470815 -4.5551697e-05
0001a0 95 d7 0b be 7d 27 91 be 96 f4 38 bb 76 1c 0f 3e
       -0.13656457 -0.2835044 -0.0028221956 0.139757
0001b0 c8 9e 6d bd 10 44 26 be fa fe a3 bd ec 3e 29 3e
       -0.058012754 -0.16236901 -0.08007617 0.16527909
0001c0 ff e3 21 3e 01 f6 e7 3c 47 db b2 3e 1b 5c d6 3e
       0.1580963 0.028315546 0.3493292 0.41867146
0001d0 67 f8 a4 3c 52 c2 c5 3d 64 88 16 3e a3 6f d1 3c
       0.020137979 0.09656204 0.14700466 0.025565928
0001e0 e0 33 4f 3e 27 de e5 3d 7c eb 81 bd 0f 09 ac 3e
       0.20234632 0.11224013 -0.06343743 0.3360066
0001f0 9d 21 84 3e 3c 88 8b 3e 7c 82 e9 be fb 9c 54 be
       0.25806895 0.27252376 -0.45607364 -0.20763008
000200 84 ad f6 be 72 33 90 be 05 07 af be 05 f7 99 be
       -0.48179257 -0.2816425 -0.34185043 -0.30071273
000210 7a 94 43 be 6c c4 4e be 9a 35 77 be 6a 90 c6 3c
       -0.19099608 -0.20192116 -0.24141541 0.024238784
000220 e8 67 2f be 6c 94 66 3d ff fc 60 3e 14 c8 f8 3d
       -0.17129481 0.05629389 0.2197151 0.12147537
000230 3e c0 62 3e cd ec 4d bd 26 ff 00 be 3b f4 84 3e
       0.22143647 -0.05027466 -0.12597331 0.25967583
000240 6d dd 05 3d f2 71 67 bc c3 ce 27 3e 58 ad 70 bd
       0.03268187 -0.014126288 0.16387467 -0.058759063
000250 fa e7 2d 3e 62 b8 87 3e 45 c1 9e bd 45 36 de bd
       0.16983023 0.2650786 -0.07751707 -0.10850195
000260 3f 8b e3 3d 14 5c 83 be 0b 46 1d be 7c 85 f1 3d
       0.111105435 -0.25656188 -0.1535875 0.11793038
000270 c1 29 96 bd 43 e8 42 bd 7b 12 bc 3d 3a c8 11 be
       -0.07332183 -0.047584783 0.09183212 -0.14236537
000280 45 30 12 be 0d 23 79 be ec 96 b4 bd 06 59 24 be
       -0.14276226 -0.24329777 -0.088178486 -0.16049585
000290 e0 46 1f 3e c1 7d ab 3d db a8 dc 3d d9 8e 01 be
       0.1555438 0.08373595 0.10774394 -0.12652148
0002a0 cf 36 4c 3d e1 4a 00 bd 33 9d 7e 3d f3 8c 21 3e
       0.049856957 -0.03132141 0.062161636 0.15776424
0002b0 73 a7 c3 3d 1b 45 44 3e 63 99 87 3e 02 d8 bc 3e
       0.09553423 0.19166987 0.26484212 0.3688355
0002c0 28 8c bc 3e 1c 53 c4 3e 48 19 2e 3e c4 e4 98 3e
       0.3682568 0.38344657 0.17001832 0.29862034
0002d0 c0 9b ae be 48 75 20 be d0 6d 0f be 59 d2 4b be
       -0.34103203 -0.15669739 -0.14006734 -0.1990446
0002e0 59 36 9e be 55 a1 92 be 80 2d e2 bd c3 df 85 be
       -0.3090084 -0.28638712 -0.11043835 -0.2614728
0002f0 d9 ee ba be 12 c6 cd 3d c9 18 67 bd 9f d2 95 3e
       -0.3651035 0.100475445 -0.05642012 0.29262254
000300 4b 19 43 3e 10 f5 8d bd 83 19 75 3d eb 56 8e bd
       0.19052617 -0.069315076 0.059838783 -0.06950172
000310 c1 78 16 3d 05 98 77 3e c4 9c 9b bb 1f 23 63 be
       0.036736254 0.24179085 -0.0047489125 -0.22181366
000320 65 d3 2f 3e 3b 6b a0 bc d4 a1 a7 bd 14 54 bb 3d
       0.17170484 -0.019582381 -0.08185163 0.09146896
000330 61 b4 e0 bd 1a 00 25 3d 07 a1 bb b9 b4 88 a3 bc
       -0.109719045 0.0402833 -0.00035787394 -0.019962646
000340 25 2c 19 be a5 e5 36 3e aa 69 4e be 48 07 c3 bd
       -0.14958246 0.1786104 -0.20157495 -0.09522873
000350 b5 16 c1 3d d7 b1 12 be 2e 5f 75 bd 07 3d d0 3c
       0.09428159 -0.14325653 -0.059905224 0.025419725
000360 0c ea cd 3e f6 32 cb 3d df a2 95 3e b9 50 84 3e
       0.40217626 0.099218294 0.29225823 0.25842836
000370 83 ea e6 3e f5 60 bf 3e 6e c8 b8 3e be 7e b6 3e
       0.45100793 0.3737866 0.36090416 0.35643572
000380 8c eb 88 3e db 36 fe 3d 43 5b df bc 75 dc d2 3c
       0.26742208 0.124128066 -0.027265197 0.025739888
000390 22 f9 f4 bc a3 2d 25 bc 0f c1 15 be 00 8a e4 3d
       -0.029903952 -0.010081681 -0.14624427 0.11159134
0003a0 21 af 17 bc 0b 98 59 3e 21 d9 2c be 48 c8 c4 be
       -0.009258063 0.21249406 -0.16879703 -0.38434052
0003b0 53 8e 89 bd f3 8c 8a be a1 92 9e be b4 cf fa bd
       -0.06716599 -0.2706066 -0.30971244 -0.122466475
0003c0 f8 d2 9f be 2b e9 e6 bd 8c 02 93 be d3 e9 63 3e
       -0.31215644 -0.11274942 -0.2871288 0.22257166
0003d0 7b d6 8b 3e 9c c3 ae 3e 5d 5f 03 3e 6c f8 b5 3e
       0.27312073 0.34133613 0.12829347 0.35541093
0003e0 7d ef 25 3e 3a db 8d 3e ce b2 7e 3e a4 c7 bc 3d
       0.16204639 0.2770632 0.24872896 0.09217766
0003f0 3b c9 ba 3d c6 11 ee bd fe b4 65 3d bd e8 f8 3d
       0.09120413 -0.11624484 0.05608081 0.12153766

enc.0.bias f4 [32]
000000 fe 90 c0 bd 8f fd 5d be 60 bb b0 be c7 d8 ad bd
       -0.09402655 -0.21678756 -0.34517956 -0.084886126
000010 60 d8 09 bf a2 b7 e8 be 66 26 86 be a0 82 01 bf
       -0.5384579 -0.454526 -0.2620117 -0.5058994
000020 c8 12 af 3c ac 99 78 3e c7 d0 fa be 8e c5 e3 bd
       0.02137126 0.24277371 -0.4898741 -0.11121665
000030 59 f0 26 bf 4f 66 6d be 59 ab c1 3e c0 f3 a2 3f
       -0.6521049 -0.23183559 0.3782604 1.2730637
000040 77 5e 33 be d3 6e 9e 3e a5 3d 65 bf 13 14 5c be
       -0.17516504 0.30943927 -0.8954719 -0.21492033
000050 c0 63 93 be 76 b1 8b bb 50 e8 b4 be 78 47 82 3d
       -0.2878704 -0.0042630984 -0.3533349 0.06361288
000060 3a b0 91 be b4 df 6e 3c e2 01 a5 bf 2e b2 ef be
       -0.28454763 0.014579702 -1.28912 -0.46815628
000070 04 22 19 3c a5 4a 46 3e b4 34 94 3e cb 99 65 3f
       0.009346489 0.19364412 0.2894646 0.89687794

enc.2.weight f4 [32, 32, 3, 3]
000000 37 22 98 bc 9c 9c 47 be 16 19 9a bd 38 6e b2 be
       -0.018571002 -0.19493335 -0.07524316 -0.34849715
000010 77 8b 68 be 88 c5 50 3d c4 14 7f bd 73 e4 50 bd
       -0.22709452 0.05096963 -0.062275663 -0.050999116
000020 86 98 65 3e e6 8f a8 bd 68 2d 5c bd 4a 23 78 bb
       0.22421464 -0.082305714 -0.05375424 -0.003786283
000030 14 a8 cd be e8 4a 87 be a1 31 b1 be 68 84 dd be
       -0.40167296 -0.26424336 -0.34608176 -0.4326508
000040 7a 90 8c be b8 98 d2 be 19 a9 d0 3b dc c5 7a 3d
       -0.27453977 -0.4113214 0.0063678143 0.06122385
000050 fd 3a 9b 3c 08 34 19 3e a1 3c 0a 3e ed 2a dc 3d
       0.018949026 0.14961255 0.1349969 0.10750375
000060 7f 76 b8 3d 6c b4 3f 3e 57 21 c1 3e ba b8 e3 3d
       0.09006976 0.18721169 0.3772075 0.11119218
000070 c8 62 f2 3d d5 62 a2 3d da 2c 6a bd 53 9a 2f be
       0.11835247 0.07929007 -0.05717168 -0.17148714
000080 c5 48 d0 be 06 09 87 3d 48 c2 96 be 5f de 50 be
       -0.4068052 0.06593518 -0.294451 -0.20397328
000090 66 dd be be d9 ae fb 3e 70 81 c1 be fa cc fd bb
       -0.3727829 0.49156836 -0.37794065 -0.0077453824
0000a0 20 c2 31 3f b1 5d c3 bc 8b 90 a4 3d 1c 83 c0 3e
       0.69436836 -0.023848386 0.08035382 0.3760003
0000b0 c5 89 bf 3e 78 95 17 3c df f2 95 bd 85 bb 84 3d
       0.37409797 0.009251945 -0.073217146 0.06481079
0000c0 85 18 4f 3a 29 dd 9f 3d 5f 95 02 3e 4c ab 6a bd
       0.0007900077 0.07805855 0.12752293 -0.057292268
0000d0 b0 73 82 bc 91 d4 b2 3d 4d 7a 62 3e 68 5c 17 3e
       -0.015924305 0.0873195 0.22116967 0.14781344
0000e0 d4 a4 a4 3e 32 94 c6 3e 9b 55 ea 3e fd f0 df 3e
       0.32157004 0.3878494 0.45768437 0.43738547
0000f0 e2 0c a2 3e 84 73 9e 3e 95 75 a6 3e b4 3c 35 bd
       0.31650454 0.30947506 0.32511583 -0.044247344
000100 e8 68 32 3c 79 be 4c 3e 14 c4 c0 bc f7 49 c0 bb
       0.010889269 0.19994535 -0.023530997 -0.0058681923
000110 03 4d 86 3e 70 91 b6 3d 0b 8b 49 3d e3 62 97 3e
       0.2623063 0.08914459 0.049204867 0.29567632
000120 2f 6c 1a be 7f 5b 68 bd 11 bc a0 bd c0 85 0c 3c
       -0.15080331 -0.056727882 -0.07848371 0.00857681
000130 28 32 10 3e 29 d2 ba 3c 2a 45 69 bd 1e 96 93 3d
       0.14081633 0.02280529 -0.056950726 0.07206367
000140 d4 56 87 3d e3 07 22 be 74 fb f4 bd ee ed 12 be
       0.06608358 -0.15823321 -0.119620234 -0.14348575
000150 77 60 85 bd 89 d9 2b 3d 0a 1b 9e 3d bb 0d c7 bb
       -0.0651254 0.041955505 0.07720001 -0.006074635
000160 ac cc dd 3d 65 bd f2 3d 80 04 64 3e 89 7d 98 3e
       0.10830054 0.118525304 0.22267342 0.29783276
000170 27 d9 94 3e 20 77 d7 3d 4b e0 a7 3c 03 03 00 3e
       0.29071924 0.10520768 0.020492693 0.12501149
000180 20 14 33 be 7f 20 49 be ba 4a 86 bd 33 7b 39 be
       -0.17488146 -0.19641303 -0.06557222 -0.18113403
000190 d9 2a 15 be 16 81 f5 bd fe 02 3c bc 4c b6 01 bd
       -0.14567126 -0.11987512 -0.011475323 -0.031667992
0001a0 4b 2a 1f bd 06 fe a2 3c 72 a7 2f bc a6 5f 5e bd
       -0.038858693 0.019896518 -0.010721074 -0.054290436
0001b0 10 f1 1e be 8e f6 d9 3c a9 bd 28 bc bc 91 27 bd
       -0.15521646 0.026606824 -0.010299125 -0.040910468
0001c0 54 aa e8 bc 87 0c d2 bd 25 d8 7c bd c3 06 09 be
       -0.028401531 -0.10256296 -0.06172957 -0.13381486
0001d0 90 9e a8 bd 0e 0b b1 3d 3b 60 57 3e b6 e2 1c 3e
       -0.082333684 0.08644687 0.21032803 0.15320858
0001e0 0e f6 02 3e 76 08 80 3d 01 34 d2 3d 8b e6 b7 3d
       0.12789175 0.06251614 0.10263825 0.089795195
0001f0 51 9d 02 3d bb 4c fa 3d 52 63 9c bd d1 fe 2f bd
       0.03188831 0.122216664 -0.07636131 -0.04296762
000200 6f 09 9f bd 26 1b 82 bd 03 fc 82 bd 5e e1 8c bd
       -0.07765471 -0.063528344 -0.06395724 -0.06878923
000210 0e 2e cf 3c a8 11 54 3b 2f f2 c3 3c 39 2d 96 3e
       0.025290515 0.0032359157 0.023919193 0.29331377
000220 e7 4a 71 3e 41 db a7 3e 6f 50 b0 3e c4 96 8c 3e
       0.23563729 0.32784465 0.34436366 0.27458775
000230 9e e0 a7 3e 48 2e a5 3e 73 b7 b1 3e 3d 95 a3 3e
       0.32788557 0.32261872 0.34710273 0.31949797
000240 d9 c1 59 3e 9c e7 fd 3d 34 d7 57 3e 63 e0 92 3e
       0.21265353 0.123976916 0.21078187 0.28686818
000250 a2 d2 a1 3d c1 8f ed 3d 0c d5 ce 3e a7 e9 e1 3e
       0.07901503 0.115996845 0.40396917 0.44123575
000260 6a 60 da 3e fe 3c 0c be 16 5b d0 be 17 e4 49 be
       0.42651683 -0.13695142 -0.40694493 -0.19715916
000270 00 ac 03 bf cc f8 10 bf 05 bb 93 be f1 00 d3 bc
       -0.51434326 -0.56629634 -0.28853622 -0.025757285
000280 4e 28 f5 bd 2a 88 a5 bd a4 a5 85 3d d9 92 58 3d
       -0.11970578 -0.08082612 0.06525734 0.05287442
000290 04 18 e6 3d 23 a7 1e ba 40 7d 1e 3d 39 ef c6 3d
       0.11235049 -0.0006052127 0.038693666 0.09713597
0002a0 63 82 dc bc c1 26 76 3d 00 05 e8 3c 8b d9 ea 3c
       -0.026917642 0.060095552 0.028322697 0.028668186
0002b0 f1 b8 7a 3e 53 e7 2c 3e 91 8a 3e 3d 29 e8 28 3e
       0.24484612 0.16885118 0.046518866 0.16494812
0002c0 41 51 14 3e 4c 5b 30 3d 77 6a 00 3e c3 a2 0f 3e
       0.14484121 0.043055817 0.12540613 0.14026932
0002d0 49 cf 5c 3d bc 8a 7f 3d fa 8e 4a 3d 2a 7e fc 3d
       0.05390862 0.062388167 0.04945276 0.123287514
0002e0 c4 98 0e 3d f2 d4 42 3c 8d d6 8d 3d 65 0c f8 3d
       0.034813657 0.01189159 0.06925688 0.12111739
0002f0 d2 85 24 3d 15 3b 46 be 34 0c 2c bd 59 f9 ca 3d
       0.040166683 -0.19358476 -0.042003825 0.099108405
000300 d5 67 2a bf c1 af 08 bf 12 8e c9 be 1c 9b 39 bf
       -0.66564685 -0.5339318 -0.39366204 -0.72502303
000310 27 89 30 bf dd 25 c5 be 25 27 19 3e 52 8d 2f 3e
       -0.6895928 -0.3850545 0.14956339 0.17143753
000320 a5 85 2f 3e b0 53 c5 3d 34 03 c5 3d de 5c 31 3e
       0.17140825 0.09635103 0.096197516 0.17320582
000330 69 db 26 3e fe 96 17 3e 12 96 f3 3d 91 87 01 3d
       0.16294636 0.14803693 0.11893858 0.031623427
000340 dc bb a2 bd c7 4a 6b be e7 25 4f 3d 02 68 2d be
       -0.079459876 -0.22977744 0.050573256 -0.16934207
000350 6b e3 06 bf 1f 7a cb 3d 7c 03 37 be 99 69 ba be
       -0.5269076 0.09935402 -0.17872423 -0.3640869
000360 a8 90 f8 3d c8 11 b8 bc ea b8 6f 3e 45 74 5f 3e
       0.12136966 -0.022469416 0.23410383 0.21821697
000370 8e 79 08 3e 2d d4 4a 3e f9 ce 42 3e 0a 86 41 be
       0.1332762 0.19807501 0.19024266 -0.18898788
000380 90 2a 90 3e 78 db e9 be b5 70 82 be 54 86 29 be
       0.28157473 -0.45675254 -0.25476614 -0.16555148
000390 c6 d9 69 be a3 90 82 be 33 76 29 be 44 8d 3a be
       -0.2283698 -0.25500974 -0.16548996 -0.18217951
0003a0 dc d3 2f be 17 7b 2c be 8b 71 d1 be be 2e ce be
       -0.17170662 -0.1684383 -0.4090694 -0.40270036
0003b0 18 8f f1 be 7b 5d c7 be 39 79 cf be f4 9f f7 be
       -0.47179484 -0.38938507 -0.40522173 -0.48364222
0003c0 23 7a c6 be c3 44 da be 91 c4 e4 be 12 1f 53 3f
       -0.38765058 -0.42630586 -0.44681218 0.82469285
0003d0 8b 9d a2 3d 24 c4 1c be f1 74 22 3f 30 df 2a bc
       0.07940205 -0.15309197 0.6345969 -0.010429189
0003e0 86 4a ae be 9e 23 e4 3e 36 29 e0 bd 95 fc d0 be
       -0.34041232 0.44558424 -0.1094536 -0.40817705
0003f0 5e 05 cd 3d e2 5c 2d 3e 76 5a 5e 3d 80 2c 6c 3d
       0.10010789 0.16929963 0.05428549 0.057659626

enc.2.bias f4 [32]
000000 b9 47 93 3f d8 8b 00 bf 38 77 80 be 15 9c 0a bf
       1.1506263 -0.50213385 -0.25090957 -0.5414441
000010 fc 9d 5f 3f d1 2e b9 be 2f 8f 2e bf 16 4c 48 be
       0.8735044 -0.3616853 -0.6818723 -0.19560274
000020 a4 2b 5a 3f 47 d6 37 3f b8 ae 22 3e d9 9c 17 bf
       0.8522284 0.71811336 0.15886962 -0.59223706
000030 28 31 98 bd 38 19 79 bf 28 9e 8c bf a1 00 6b 3f
       -0.07431251 -0.97304106 -1.0985765 0.91797835
000040 f4 ec 57 3f 5b 72 35 bf b3 ad 00 bf 6e f1 7e bf
       0.84345937 -0.7087762 -0.50265044 -0.9958714
000050 49 dd 83 bf 93 a1 53 bf a5 76 4f 3f aa b4 e3 3e
       -1.0301906 -0.8266842 0.8104041 0.44473773
000060 37 2f 7f bf 17 49 60 3f a5 e0 57 3f c8 7d 2b 3e
       -0.9968142 0.87611526 0.84327155 0.167472
000070 0d 68 0e bf ce 49 e7 3e 0c 56 3c 3f c8 68 3d 3f
       -0.5562752 0.45173496 0.735688 0.7398801

dec.0.weight f4 [32, 32, 2, 2]
000000 c6 bd 76 3e 7b 86 74 3e b9 f5 44 3e 74 54 8b 3e
       0.2409583 0.23879425 0.19234361 0.2721287
000010 3c 74 93 be 9f e9 40 3d e5 cc a3 bd 19 4d a4 be
       -0.28799617 0.0470978 -0.07998065 -0.3209007
000020 dc 85 b7 bd 2f e3 30 bf a5 b1 86 bb 8a bd 86 be
       -0.089610785 -0.69096655 -0.0041105323 -0.26316482
000030 9c 25 cc be 2e 3b f7 bd b5 63 1b 3e 3c 1f ba 3c
       -0.39872444 -0.120718345 0.15174754 0.022719972
000040 08 f2 89 bf a7 9d 08 bf ef c2 ef bd dc a5 9e be
       -1.0776987 -0.5336556 -0.117071025 -0.30985916
000050 07 2d 21 bf 3b a8 2c bf 90 80 42 bf 76 26 d5 be
       -0.6295933 -0.674442 -0.7597742 -0.41630906
000060 f8 f2 39 3e d5 76 89 3e 9e c2 b3 3e f3 51 ae 3e
       0.18159091 0.26848474 0.3510942 0.34046897
000070 fb 3b c4 be 10 02 04 be bb 80 2a be c7 d2 b5 be
       -0.3832701 -0.12891412 -0.1665067 -0.35512373
000080 2b ca e6 be a3 18 54 3d 5d 2e 22 bb cf 85 60 bb
       -0.45076117 0.051781308 -0.0024746873 -0.0034259444
000090 36 db d1 be 62 cd b6 be ac 95 91 be af 7c ba be
       -0.40987557 -0.3570357 -0.28434503 -0.3642325
0000a0 9e 80 e0 3e 02 62 76 3e c9 de c4 3e 12 19 9c 3e
       0.43848127 0.24060825 0.38451222 0.30487877
0000b0 cb 68 28 be 8c 47 c5 bc c7 c5 eb be f9 83 0f 3e
       -0.16446225 -0.024081968 -0.4604933 0.14015187
0000c0 6c 76 90 bd 36 ec 21 3e 7f f2 3c 3e e1 42 ac 3d
       -0.07053837 0.15812764 0.1845188 0.08411194
0000d0 02 60 0d 3e 86 52 2b 3d c6 bf 34 3e bf 03 32 3e
       0.13806155 0.041826747 0.17651281 0.17384242
0000e0 05 85 d8 3d 2f 79 be 3d 71 f1 12 3c 16 92 6c 3d
       0.105722465 0.09300458 0.008968697 0.057756506
0000f0 1a 1e a9 3e fd 7d 88 3d 25 cf 96 3e ac b4 31 3d
       0.33030778 0.06664655 0.29454914 0.043385193
000100 48 9a b8 3e a7 0b f8 3e 0a 3b e8 3e 35 c2 2d 3e
       0.36055207 0.4844639 0.45357543 0.16968615
000110 ce a8 58 bb 8e 7c 78 ba 03 0f e0 3c 78 ce fa bd
       -0.00330596 -0.00094790093 0.027350908 -0.12246412
000120 54 a7 0b 3c 29 80 30 3e d2 a9 a7 3e 9a c3 db bd
       0.008523781 0.17236389 0.3274675 -0.107306674
000130 76 bc 01 bd d1 45 d9 ba 01 94 85 be 11 55 1e bf
       -0.03167387 -0.0016576593 -0.2608948 -0.6184855
000140 01 aa 93 be e6 74 50 3e 13 a7 5d 3d 37 7b 64 bd
       -0.2884064 0.20357093 0.054114413 -0.05578157
000150 d1 ac 6c 3e 2a a2 a2 3e 34 73 98 3e b0 ad ae 3e
       0.23112799 0.31764346 0.29775393 0.34116888
000160 5b d1 a5 3e 2b cd 33 3e e9 e5 c0 bc 16 5c d5 3e
       0.32386288 0.17558734 -0.02354713 0.41671818
000170 f0 f1 2d 3d 31 0e 23 3e ff ad bf bc 11 a2 a5 3e
       0.042467058 0.15923382 -0.023398397 0.3235021
000180 ff 35 15 3e 59 e9 2b 3e a5 c6 1f 3e a2 bb 4e 3e
       0.14571379 0.16788234 0.1560312 0.20188764
000190 92 fe ba 3b 34 17 8f 3e 1e c0 5d 3e fb cd cd bc
       0.0057066167 0.2794739 0.21655318 -0.025122633
0001a0 78 18 b9 be b7 8b 7d be f0 4c 82 be 69 87 87 be
       -0.3615148 -0.24760328 -0.25449324 -0.26470497
0001b0 1e aa 43 be d1 41 cb be ab 8b 7a bd f8 2e a5 3c
       -0.19107863 -0.3969865 -0.061168354 0.020163998
0001c0 9c 2d 00 bd 5e 32 bd 3d b7 40 b2 3d 1c ab 7e 3e
       -0.031293496 0.092381224 0.087037496 0.2486996
0001d0 aa 76 89 bd d8 47 32 be a4 2a a7 bd da 4f 94 be
       -0.067120865 -0.17410219 -0.0816243 -0.28967172
0001e0 b3 df ad bd 6b da 21 be fe 53 bf be b5 ee 1f be
       -0.08489933 -0.15805976 -0.37368768 -0.15618403
0001f0 40 b3 b9 3e 09 de b3 3e 51 4c 9b 3e ba 18 8a 3e
       0.3626957 0.35130337 0.30331662 0.2697199
000200 b1 80 0d 3d 8d 27 05 be 28 36 89 3d 79 d8 88 bd
       0.034546558 -0.13003369 0.066997826 -0.06681914
000210 9b 65 a8 3e 33 b4 ca bd 96 cc 9f 3e b8 fd b1 3e
       0.3289002 -0.098976515 0.31210774 0.34763885
000220 c8 21 66 be 50 5f 0d be b4 93 1d 3d c4 3e 97 bd
       -0.22473824 -0.1380589 0.03847094 -0.073850185
000230 a9 91 f5 bc 51 ad 85 be d5 ab c9 bb 17 e3 d0 3c
       -0.029976683 -0.26108792 -0.006154517 0.02549891
000240 f1 57 ec bc 45 29 d6 be 9d b3 a2 3c 98 13 14 be
       -0.028850527 -0.4182836 0.019861037 -0.144606
000250 12 2b 81 be 5d ab 3a 3e c2 42 a4 be 66 90 d4 be
       -0.25228173 0.18229432 -0.32082182 -0.41516417
000260 13 86 96 bd 66 1a 4f 3d f5 ee f1 bb b3 fb 09 3e
       -0.073497914 0.050562285 -0.007383222 0.13474922
000270 63 5b 36 bd 42 7c dd bd 51 8d 8f 3d c0 21 c7 bd
       -0.044520747 -0.10814716 0.07009376 -0.09723234
000280 95 9a a8 bd e4 2a d7 be 44 f0 c2 bc 53 f0 78 3d
       -0.08232609 -0.4202491 -0.023796208 0.060776066
000290 68 69 80 3d a1 ea 05 bd 04 f7 f5 bc e7 68 3b bb
       0.06270105 -0.032694463 -0.030025013 -0.0028596462
0002a0 62 b8 34 3e 35 6d 4c bd de d7 0c 3d 1f 58 2b 3e
       0.17648461 -0.049908835 0.034385554 0.16732834
0002b0 3a fa 02 3f f3 77 d7 be ce 0e 27 3f 6e cf e7 3e
       0.51163065 -0.42083701 0.65256965 0.45275444
0002c0 ee 94 4e be d7 46 7e 3d b3 f3 f0 3d 1c ea a0 be
       -0.20174 0.062079277 0.11765232 -0.3142861
0002d0 1a 63 87 3e dc 1f 91 3d 9d 9a d7 be a8 18 81 3d
       0.26442796 0.07086155 -0.42110148 0.06303531
0002e0 11 dc 7f be 1a c9 5c 3e 5b 3e 27 3e c3 9d 8a be
       -0.24986292 0.21561089 0.1633238 -0.27073488
0002f0 3f 1e 5e be 74 81 10 bd e4 8f 73 3e 76 05 83 3d
       -0.21691225 -0.035279706 0.23785359 0.06397526
000300 f0 ed 5c be fb 3a 07 3e cc 22 97 be f2 31 42 3d
       -0.21575141 0.13206093 -0.29518735 0.047410913
000310 2b 17 43 be 17 ce 33 be 8f 25 8e bd 8b a8 dc be
       -0.19051807 -0.17559086 -0.069407575 -0.43097338
000320 a3 7a dd bd a1 08 60 3d d9 44 24 3e 17 01 af 3e
       -0.10814407 0.05469573 0.16041888 0.3418052
000330 f8 77 52 bd a3 00 27 bd ba 2d 34 be 19 84 25 bd
       -0.051383942 -0.04077209 -0.17595568 -0.04040918
000340 56 f7 f1 bd e2 67 85 bc 04 64 63 bc 87 e9 86 bc
       -0.11814754 -0.016284887 -0.013878826 -0.016468776
000350 81 4e bd bd 58 56 35 be 5d 6a 2c 3c de b6 08 3e
       -0.09243489 -0.17708719 0.010523406 0.13351008
000360 80 c5 d3 3d 80 e4 7b be 70 de c6 3d e1 c7 4b 3d
       0.103404045 -0.24598885 0.09710395 0.049751166
000370 b4 b8 14 be 26 2f 34 be 1c b5 89 be 20 d4 cf be
       -0.14523584 -0.1759611 -0.26895988 -0.40591526
000380 a9 a5 7e 3d 8d 17 74 3e 34 88 f6 3d 25 b9 06 bf
       0.062169705 0.23837109 0.120376974 -0.5262626
000390 dc 27 4a 3e 6e c8 43 bc e0 41 46 be 91 f2 16 3e
       0.19741768 -0.011949642 -0.19361067 0.14740969
0003a0 0c 0a 3d 3d 0e 12 8c 3d 88 a3 d7 bc 1e 02 b6 3c
       0.04615216 0.06839381 -0.026323095 0.022217806
0003b0 80 78 74 bc 12 af e6 3e 5a cd 9a bd 6c 4c 92 bd
       -0.014921308 0.45055443 -0.07558699 -0.071434826
0003c0 2a 3b c7 bd 10 f9 2a 3e 25 68 88 bd 64 1b 0e bf
       -0.097280815 0.16696572 -0.06660489 -0.55510545
0003d0 61 9a 64 3e 33 03 29 3c db 40 dc bd 17 42 ed bd
       0.22324516 0.010315704 -0.10754558 -0.11584871
0003e0 29 b4 c8 bd ce cd b7 bd db 9f 02 be 8d c0 e8 bd
       -0.09799988 -0.08974801 -0.12756293 -0.11364851
0003f0 dc 46 31 3e d8 5d 47 3e 19 2a 36 3e 92 8f 7d be
       0.17312187 0.19469392 0.17789496 -0.24761799

dec.0.bias f4 [32]
000000 fd 9e 62 3f 0c 20 90 bf f7 5d 53 bf ee 60 29 bf
       0.88523847 -1.125978 -0.82565254 -0.6616353
000010 e2 67 f5 be 06 b2 29 3e ba dd 63 3f 78 60 8f bb
       -0.4793082 0.16571817 0.890102 -0.0043755136
000020 39 43 0d bf 19 b1 08 3d 02 d5 24 3f b0 0e a7 bf
       -0.551807 0.03337202 0.64387524 -1.3051357
000030 9e 16 32 3e ac 4f eb 3e 68 08 63 3e cd 1e 4a 3f
       0.1739144 0.45959222 0.22171175 0.7895325
000040 72 dd 6f 3f d9 a2 16 bd 87 ff 38 3f 6e 6e 00 bf
       0.93697274 -0.036776397 0.72264904 -0.501685
000050 41 ad 8e bd 3b b3 5d 3f 8e 6b 33 3f c7 b8 34 3f
       -0.06966639 0.8660161 0.7008599 0.7059445
000060 c6 c6 64 3f 5e 23 07 3f 00 c6 ac 3c fe 08 88 bf
       0.89365804 0.5278834 0.021090508 -1.0627744
000070 4a 17 ab bf a5 fc ca bd ec fd a7 bd 85 3e 48 3f
       -1.3366482 -0.09911469 -0.08202729 0.782204

dec.2.weight f4 [1, 32, 1, 1]
000000 7d 8c 03 3e de 8d 8f be ef 86 80 bd f0 16 1c 3e
       0.12846561 -0.28037924 -0.062757365 0.15243125
000010 de d9 e7 3d bb 55 6b be ce e1 0d 3e a5 a0 1f be
       0.11320852 -0.22981922 0.13855669 -0.15588625
000020 30 d4 c2 bd c0 12 1c be 8f 1b 4d 3e 4c 6d 22 be
       -0.09513128 -0.15241528 0.20030044 -0.15862006
000030 ce 75 dc bc 6c 6e 1b 3e 2e 0c 74 3d 5a 7b 7d 3e
       -0.026911642 0.15178841 0.059581928 0.24754086
000040 f3 d9 7d 3e 6b 9c 0d be 5d 4b f3 3d 47 13 aa bd
       0.24790172 -0.138292 0.11879609 -0.08304458
000050 de 2d 99 bd 56 4b 0e 3e 6e 7a 2e 3e f7 29 ac 3d
       -0.074794516 0.13895926 0.1703889 0.08406442
000060 11 9f 0f 3e 69 a4 d2 3d 9d 9f 29 be 3e fd 95 be
       0.14025523 0.10285265 -0.16564794 -0.2929477
000070 97 2f f5 bd d3 31 df bd 1a f2 00 be 4c 79 37 3e
       -0.11971968 -0.10898175 -0.12592354 0.17917365
