best_model.pth (torch, 60644 bytes, 7 tensors)

enc.0.weight f4 [32, 3, 3, 3]
-0.05601131 0.07402636 0.030827051 0.10922708 -0.11057878 0.17446896 0.07639919 -0.18262887
-0.087176085 0.19018391 0.1592013 0.08524277 0.044438608 -0.06267707 0.08058053 -0.09097208
-0.024772737 -0.11390966 -0.11096484 -0.08538452 -0.09352401 -0.079608314 -0.07302799 0.06653793
0.12210231 -0.055167723 -0.044471227 -0.06065126 0.104228884 0.22528638 0.07312911 -0.030874217
0.027718492 0.16502422 0.065403454 0.14706784 -0.18931238 0.08234073 0.08527826 0.11769994
0.023741366 0.11785655 -0.067957364 -0.12305832 -0.027497292 -0.19470625 -0.022842715 0.109928176
-0.20695554 0.03310443 -0.019460624 0.03281423 -0.13116522 -0.11007375 0.009189009 -0.055609122
-0.08283466 -0.060331535 -0.011244748 0.099379994 -0.096498564 0.13668898 -0.045420773 -0.11143426
0.073663965 0.12315965 -0.18748763 -0.09668254 0.026923196 -0.19301172 -0.19081412 -0.1261937
-0.08481322 -0.056294985 -0.08216571 -0.11838657 -0.00077680894 -0.06769079 0.03521569 0.011891438
-0.18306978 -0.014156215 -0.090493634 -0.1190917 -0.027534647 -0.24155344 -0.03490636 0.058456507
-0.21397929 -0.19044518 0.12473323 0.1655333 0.15019245 0.01641377 0.18923208 -0.17450449
0.011278331 0.01674813 0.11109264 0.13192172 0.18216513 -0.089479566 0.011293079 -0.14721434
0.0972708 -0.046169132 0.18220755 -0.15272453 -0.14531645 -0.105164476 0.20920628 0.17527859
0.046795804 0.11438538 -0.10258105 0.15559423 0.18303424 0.1026279 -0.0018745629 -0.16561443
-0.04524094 0.1326372 0.1141405 -0.10052665 0.058015086 -0.14781314 0.107084356 -0.19070756
0.038358968 -0.036926735 0.081691444 -0.24432343 0.14454152 0.019793201 -0.20529853 0.062984444
-0.19414447 0.14067139 -0.14298439 -0.17951915 0.08092883 0.04092107 -0.04629703 0.074747734
-0.23203996 -0.24011846 0.015273033 0.109220326 -0.15449166 -0.020259136 0.038399942 -0.023452612
0.11967424 0.12403724 -0.17078769 0.08875518 -0.119510636 0.1050833 0.061441448 0.03529597
-0.20665145 0.009901262 -0.0054884455 0.12734847 -0.20529646 -0.09293837 -0.047603805 -0.1621372
0.028079858 0.18083669 0.16498996 0.10418152 -0.11878603 0.08280687 0.111616336 0.03232503
-0.15308715 0.018118156 0.060676716 -0.1639814 0.029129647 0.10950864 -0.17682165 -0.044219352
0.12760475 0.04554136 0.07249752 0.043725256 -0.14390504 0.13707142 0.14049475 0.06562632
-0.1385111 -0.08727652 -0.060445536 -0.1189357 0.16914982 0.018298589 0.12518051 -0.13399959
0.089090444 -0.10293882 0.010686694 0.16903017 -0.093873754 -0.0042306543 -0.20289192 0.0013735365
-0.047555026 0.02165465 -0.07638235 -0.1701362 0.09030492 0.058034193 0.10180461 -0.08656417
0.14172353 0.044353902 0.0156586 0.079894744 0.081442535 0.12578967 0.13634397 -0.030448824
-0.13183321 0.1296238 0.09395452 -0.0046193968 0.08054197 -0.10336089 -0.014177075 0.12560384
0.10058294 0.07586117 0.0147968205 -0.13377266 -0.15587646 -0.15319471 -0.12462133 0.13252981
-0.15636528 0.01820682 -0.2067704 0.3158005 0.025692007 0.17660922 0.20040905 -0.016118944
0.2656361 0.18435624 0.1308559 0.30548042 -0.0977279 -0.044931833 0.01376958 -0.053173088
00000000: 1e6c 65bd 229b 973d 0389 fc3c 73b2 df3d
00000010: 2177 e2bd fea7 323e 2e77 9c3d 1003 3bbe
00000020: 6089 b2bd 92bf 423e aa05 233e c393 ae3d
00000030: 4205 363d d65c 80bd 6807 a53d 924f babd
00000040: 32f0 cabc 7849 e9bd 8941 e3bd 14de aebd
00000050: 8489 bfbd af09 a3bd b38f 95bd 0a45 883d
00000060: c710 fa3d 8df7 61bd 7627 36bd 756d 78bd
00000070: f475 d53d 79b1 663e b7c4 953d edeb fcbc
00000080: e411 e33c 1cfc 283e 3ff2 853d f498 163e
00000090: 1bdb 41be 42a2 a83d 5ea6 ae3d ab0c f13d
000000a0: 417d c23c c65e f13d 3b2d 8bbd 0006 fcbd
000000b0: 0042 e1bc 1361 47be a520 bbbc 0622 e13d
000000c0: 27ec 53be 8398 073d e36b 9fbc 3768 063d
000000d0: 2d50 06be 596e e1bd 7f8d 163c 64c6 63bd
000000e0: 38a5 a9bd 331e 77bd e43b 38bc bd87 cb3d
000000f0: 0aa1 c5bd 32f8 0b3e 220b 3abd a537 e4bd
00000100: 22dd 963d 203b fc3d c2fc 3fbe 7f01 c6bd
00000110: 098e dc3c dda4 45be c764 43be ec38 01be
00000120: 8eb2 adbd 9295 66bd 7f46 a8bd a874 f2bd
00000130: c4a2 4bba 78a1 8abd 543e 103d 4ed4 423c
00000140: a576 3bbe 78ef 67bc ba54 b9bd 59e6 f3bd
00000150: 5790 e1bc c959 77be f9f9 0ebd 1770 6f3d
00000160: 631d 5bbe 1004 43be 2374 ff3d 9081 293e
00000170: 0dcc 193e 2c76 863c 0ec6 413e 4eb1 32be
00000180: c0c8 383c 6033 893c 8a84 e33d 7d16 073e
00000190: 7f89 3a3e 1041 b7bd 9b06 393c 5bbf 16be
000001a0: ea35 c73d d81b 3dbd 9e94 3a3e d263 1cbe
000001b0: d6cd 14be 7960 d7bd 2c3a 563e 3b7c 333e
000001c0: f5ac 3f3d e242 ea3d 0316 d2bd 1854 1f3e
000001d0: 546d 3b3e 942e d23d e5b3 f5ba d496 29be
000001e0: 904e 39bd 0cd2 073e 7fc2 e93d ebe0 cdbd
000001f0: 3aa1 6d3d 545c 17be 0b4f db3d d848 43be
00000200: 4b1e 1d3d 7d40 17bd d84d a73d ec2f 7abe
00000210: b102 143e 5a25 a23c c739 52be fdfd 803d
00000220: cfcd 46be 290c 103e 806a 12be ded3 37be
00000230: 04be a53d da9c 273d f4a1 3dbd 5715 993d
00000240: e29b 6dbe 9de1 75be be3b 7a3c e8ae df3d
00000250: 1033 1ebe 7df6 a5bc 4249 1d3d b11f c0bc
00000260: c517 f53d 3d07 fe3d f8e2 2ebe 47c5 b53d
00000270: fec1 f4bd ea35 d73d 07aa 7b3d 8292 103d
00000280: 709c 53be e738 223c 6bd8 b3bb a367 023e
00000290: 3c39 52be 7956 bebd 35fc 42bd 4b07 26be
000002a0: bb07 e63c 412d 393e 21f3 283e 1f5d d53d
000002b0: 1746 f3bd a696 a93d 1b97 e43d 4067 043d
000002c0: e1c2 1cbe 876c 943c 2688 783d bdea 27be
000002d0: 4ca1 ee3c 1146 e03d bc10 35be 5a1f 35bd
000002e0: d2aa 023e 9489 3a3d 9479 943d 4119 333d
000002f0: d85b 13be 735c 0c3e dbdd 0f3e 1867 863d
00000300: dbd5 0dbe 08be b2bd bd95 77bd 8f94 f3bd
00000310: 9c35 2d3e ece6 953c 522f 003e 3037 09be
00000320: 0d75 b63d 97d1 d2bd 3e17 2f3c 3f16 2d3e
00000330: e240 c0bd 4da1 8abb e6c2 4fbe 3d08 b43a
00000340: 0fc9 42bd 1865 b13c 596e 9cbd 2f38 2ebe
00000350: c9f1 b83d 43b5 6d3d ef7e d03d 8e48 b1bd
00000360: f91f 113e 70ac 353d 7746 803c db9f a33d
00000370: 58cb a63d 02cf 003e c19d 0b3e d06f f9bc
00000380: 49ff 06be 1abc 043e 3a6b c03d 4f5e 97bb
00000390: 30f3 a43d e0ae d3bd f646 68bc 4b9e 003e
000003a0: 6efe cd3d 1a5d 9b3d 5d6e 723c b3fb 08be
000003b0: 149e 1fbe 13df 1cbe 7839 ffbd e5b5 073e
000003c0: 381e 20be 7826 953c 9fbb 53be 9ab0 a13e
000003d0: 0b78 d23c 0cd9 343e 0838 4d3e e00b 84bc
000003e0: 7401 883e e2c7 3c3e 17ff 053e ee67 9c3e
000003f0: 9125 c8bd 710a 38bd ce99 613c 06cc 59bd

enc.0.bias f4 [32]
0.33358184 0.26166478 -0.08037165 -0.4699565 0.08345097 -0.21467826 -0.22709315 -0.25495064
0.06941448 0.2958579 0.02158568 0.4072292 0.40981597 -0.09073034 0.38398445 -0.6003707
0.5005901 0.18675004 0.28130662 -0.14392468 -0.085805416 -0.07100749 -0.019677784 0.21101178
-0.20232448 -0.1490335 0.13172714 0.3697827 -0.0757758 -0.54730624 -0.13990888 -0.42871594
00000000: 3dcb aa3e edf8 853e e499 a4bd 239e f0be
00000010: 58e8 aa3d 9ed4 5bbe 1b8b 68be e488 82be
00000020: 2e29 8e3d b07a 973e 74d4 b03c 5880 d03e
00000030: 66d3 d13e d4d0 b9bd 9c99 c43e e5b1 19bf
00000040: ac26 003f 673b 3f3e 6c07 903e fe60 13be
00000050: c0ba afbd 606c 91bd 4e33 a1bc 7913 583e
00000060: 262e 4fbe 3d9c 18be 7be3 063e 2854 bd3e
00000070: 5830 9bbd 431c 0cbf 4644 0fbe a880 dbbe

enc.2.weight f4 [32, 32, 3, 3]
-0.087738864 -0.08918735 -0.047526013 0.0023544452 -0.110213876 -0.028725624 -0.0104878675 -0.08023253
-0.10055597 -0.033110995 -0.006138627 -0.103419654 -0.09882595 -0.04944012 -0.024222214 -0.073157
-0.10464327 -0.007125884 -0.045199156 -0.09073657 -0.007700329 -0.08009329 -0.044846825 -0.09611
-0.12126429 -0.109333985 -0.101460695 -0.006182603 0.0381275 0.047545303 0.05245809 0.024003215
0.11368568 0.06503521 0.086704195 0.018904673 -0.043576155 -0.055944335 0.0066585876 0.0088040875
-0.03901378 0.0062967623 -0.016161965 0.03053259 -0.014154621 0.0182356 0.0869247 0.072036415
-0.008914119 -0.008804231 0.04854642 0.054664124 0.05671492 0.003606687 -0.009912377 -0.03944219
0.017384754 -0.045766503 0.051818423 -0.034766804 -0.027522676 0.024704952 0.047801346 0.048285354
0.033048995 0.008684183 0.053750213 0.04907586 0.034161773 -0.008486779 -0.03351506 0.030035378
-0.006768535 -0.012741701 0.014260947 -0.0307869 -0.032005295 -0.04368093 0.005325433 0.052318577
-0.03509499 -0.081963785 -0.10166205 -0.116042174 -0.07256269 -0.07273638 -0.041798096 -0.06683788
-0.06865217 -0.07683853 0.025236512 0.002589222 -0.02547433 0.04604386 0.04449515 0.07305102
-0.0023842177 0.015967935 0.026671717 -0.1061759 -0.061773628 -0.10577211 -0.073272355 -0.073074825
-0.08118873 -0.013442471 -0.030242227 -0.051596675 -0.08390027 -0.027046623 -0.00596372 0.012184844
-0.057279453 0.00778871 0.030426752 0.008242954 0.0018082059 0.045763373 0.01434495 -0.0038107967
-0.028800786 0.0030915851 -0.025479985 0.041397486 0.062330853 -0.0013128627 -0.014158381 -0.082944736
-0.11977178 -0.10676195 -0.03479692 -0.0352032 -0.08381982 -0.046618287 -0.1115887 0.07617485
0.07784489 0.015657801 0.07352713 0.023157682 0.008815948 0.045473233 0.078265354 -0.008007082
-0.17383206 -0.16795236 -0.14581095 -0.14556465 -0.16976908 -0.19653662 -0.17820866 -0.1229207
-0.119448595 -0.034712993 -0.069218494 -0.028557481 -0.080848075 -0.083904244 -0.06765057 -0.07212019
-0.045232624 -0.0030552577 0.013372388 -0.027080502 -0.08357237 -0.055430233 -0.07750479 -0.112604104
-0.023285698 -0.07795466 -0.02815302 -0.057128195 0.06892995 0.0046148505 0.04523665 -0.013086191
0.073866166 -0.033203106 -0.028751565 0.055408996 0.014746926 -0.026728358 -0.009165825 0.03394079
-0.024665035 0.023000997 0.014576544 -0.020769702 -0.03104736 0.008310135 -0.041749164 0.039946444
0.036287747 -0.07086334 -0.057805076 -0.045041315 0.0037458395 0.018022195 -0.12815669 -0.1080172
-0.101880535 -0.15181921 -0.13810726 -0.045188606 -0.14282078 -0.11823034 -0.020614477 -0.05949272
-0.04446503 -0.01400204 -0.022947924 -0.007456773 -0.02923166 0.013442154 -0.07236931 -0.041811414
0.00095051737 0.07708232 0.01639849 -0.037961926 -0.00071838417 -0.028363945 -0.038697544 -0.013903486
-0.046548255 -0.015789336 0.090507396 0.030457731 -0.00073584 0.050454795 0.0138163455 -0.04279223
-0.041328117 0.019835342 0.00081470824 -0.045831267 0.046580844 0.016256724 0.0022428841 -0.033645462
-0.038207427 0.036675487 -0.0016128443 0.028607862 0.019792987 -0.039807327 0.029156867 -0.072369315
-0.08448407 -0.016484208 -0.028561786 -0.060810164 -0.066429265 -0.019217351 0.0043357327 -0.0454486
00000000: 6fb0 b3bd dba7 b6bd a3aa 42bd 094d 1a3b
00000010: d0b7 e1bd 0052 ebbc 4ed5 2bbc f450 a4bd
00000020: 4af0 cdbd 659f 07bd 8926 c9bb afcd d3bd
00000030: 4265 cabd b981 4abd aa6d c6bc 56d3 95bd
00000040: 364f d6bd 3f80 e9bb c022 39bd 18d4 b9bd
00000050: 0b53 fcbb f307 a4bd 4eb1 37bd 52d5 c4bd
00000060: 6959 f8bd 7fea dfbd a0ca cfbd 6f97 cabb
00000070: 952b 1c3d ddbe 423d 4bde 563d 64a2 c43c
00000080: 0ad4 e83d 2e31 853d f891 b13d f9dd 9a3c
00000090: e97c 32bd e325 65bd 4830 da3b 053f 103c
000000a0: eacc 1fbd 1255 ce3b 1966 84bc 7b1f fa3c
000000b0: c9e8 67bc d362 953c 9405 b23d d487 933d
000000c0: 860c 12bc 9f3f 10bc 9cd8 463d 7de7 5f3d
000000d0: e74d 683d 2b5e 6c3b 8667 22bc 228e 21bd
000000e0: 796a 8e3c a875 3bbd 8e3f 543d a367 0ebd
000000f0: 3c77 e1bc 0a62 ca3c 58cb 433d ddc6 453d
00000100: 625e 073d 1a48 0e3c 2f29 5c3d c503 493d
00000110: 37ed 0b3d 220c 0bbc 1647 09bd c10c f63c
00000120: 96ca ddbb 91c2 50bc bfa6 693c cf34 fcbc
00000130: fc17 03bd c6ea 32bd f880 ae3b 014c 563d
00000140: c4bf 0fbd a1dc a7bd 3134 d0bd 85a7 edbd
00000150: bf9b 94bd d0f6 94bd 7b34 2bbd 4ce2 88bd
00000160: 8299 8cbd 855d 9dbd cdbc ce3c f0af 293b
00000170: 8baf d0bc 7d98 3c3d 8c40 363d c69b 953d
00000180: 8940 1cbb 30cf 823c a57e da3c c072 d9bd
00000190: 5806 7dbd 0c9f d8bd d10f 96bd 41a8 95bd
000001a0: 4746 a6bd cf3d 5cbc 8cbe f7bc 0957 53bd
000001b0: e8d3 abbd e190 ddbc 4f6b c3bb f1a2 473c
000001c0: dc9d 6abd 6f38 ff3b 8641 f93c 740d 073c
000001d0: 5201 ed3a 6072 3b3d 1507 6b3c 8fbe 79bb
000001e0: a0ef ebbc 319c 4a3b 67bb d0bc 6990 293d
000001f0: a34e 7f3d 5d14 acba 8ef8 67bc eede a9bd
00000200: e84a f5bd 02a6 dabd 3787 0ebd 3b31 10bd
00000210: baa9 abbd d1f2 3ebd 9e88 e4bd 8f01 9c3d
00000220: 246d 9f3d ca44 803c 6495 963d 2eb5 bd3c
00000230: c470 103c 2442 3a3d 9649 a03d 2330 03bc
00000240: 0801 32be b4fb 2bbe 774f 15be e60e 15be
00000250: f2d7 2dbe e540 49be 557c 36be d9bd fbbd
00000260: 77a1 f4bd 362f 0ebd 6dc2 8dbd 61f1 e9bc
00000270: ad93 a5bd fdd5 abbd 628c 8abd c0b3 93bd
00000280: d845 39bd b83a 48bb dc17 5b3c eed7 ddbc
00000290: fe27 abbd d00a 63bd d5ba 9ebd fb9c e6bd
000002a0: a6c1 bebc b1a6 9fbd 2aa1 e6bc 41ff 69bd
000002b0: 252b 8d3d 2c38 973b 114a 393d 7767 56bc
000002c0: 2547 973d fbff 07bd 6788 ebbc 8bf4 623d
000002d0: 179d 713c 6ef5 dabc 422c 16bc 7f05 0b3d
000002e0: 540e cabc 966c bc3c 75d2 6e3c 3925 aabc
000002f0: 0857 febc 3c27 083c 2c01 2bbd e29e 233d
00000300: 76a2 143d cc20 91bd 04c5 6cbd 3e7d 38bd
00000310: c27c 753b 48a3 933c 823b 03be 1f38 ddbd
00000320: bea6 d0bd 7f76 1bbe fd6b 0dbe b017 39bd
00000330: 9c3f 12be c022 f2bd b1df a8bc a3ae 73bd
00000340: f720 36bd d068 65bc 49fd bbbc f257 f4bb
00000350: 3c77 efbc 7b3c 5c3c 5c36 94bd 7242 2bbd
00000360: 242c 793a 56dd 9d3d 2056 863c f77d 1bbd
00000370: f251 3cba 815b e8bc 5181 1ebd 72cb 63bc
00000380: 62a9 3ebd a358 81bc f15b b93d 7e82 f93c
00000390: 63e5 40ba b0a9 4e3d f45d 623c e846 2fbd
000003a0: ac47 29bd ba7d a23c 2592 553a 91b9 3bbd
000003b0: 8ecb 3e3d d22c 853c 5afd 123b d3cf 09bd
000003c0: 647f 1cbd 0939 163d 1366 d3ba 095b ea3c
000003d0: e724 a23c 020d 23bd 62da ee3c 5d36 94bd
000003e0: fc05 adbd e409 87bc 68fa e9bc 1414 79bd
000003f0: 110c 88bd b56d 9dbc c312 8e3b 5028 3abd

enc.2.bias f4 [32]
-0.19351497 0.24530347 0.00837425 0.18154715 -0.0756769 0.28629097 -0.12728398 0.21016793
0.29869533 -0.1459481 -0.11031435 -0.21672247 0.27778456 -0.22186638 -0.16223972 0.15722963
-0.06440481 -0.21345028 -0.30205664 -0.12692508 -0.14601925 -0.047859803 0.19318129 0.16870926
0.16036776 0.26042297 0.25020993 0.2758245 -0.118864454 0.26522553 -0.16952285 0.23212624
00000000: ca28 46be d530 7b3e 2634 093c 7fe7 393e
00000010: 7efc 9abd bb94 923e bb56 02be 4336 573e
00000020: 98ee 983e 6b73 15be 7dec e1bd 7fec 5dbe
00000030: c739 8e3e f130 63be 2b22 26be ce00 213e
00000040: abe6 83bd b692 5abe 2ba7 9abe a6f8 01be
00000050: 1286 15be a408 44bd 51d1 453e 1fc2 2c3e
00000060: 7237 243e 2956 853e 841b 803e de38 8d3e
00000070: 356f f3bd a4cb 873e 6697 2dbe 80b2 6d3e

dec.0.weight f4 [32, 32, 2, 2]
-0.09117947 -0.0069399285 0.053360187 0.08458289 -0.020308098 0.0020932627 -0.07807209 -0.08387053
0.017665356 -0.1227897 0.029690653 -0.045215122 -0.040288165 0.06466669 0.003817513 -0.08033581
-0.09701157 -0.15698203 -0.2266951 0.005973898 0.01485408 -0.051724765 0.10938028 0.018616315
-0.02888512 -0.05087881 -0.029789753 -0.038148653 0.06298973 -0.053745497 -0.04592777 0.0703879
-0.035765123 -0.10990092 -0.024556354 -0.05838274 -0.059086856 0.050617732 -0.041677754 -0.020782698
0.1142572 0.061283283 -0.0003983892 0.0691517 0.07776577 -0.007307006 0.03127626 -0.011124954
-0.0023506428 0.03650852 -0.061897665 -0.08162338 0.05846228 -0.11249939 0.01985982 -0.14383033
0.11099674 0.07735028 -0.10077414 -0.017219663 -0.3133791 0.020858398 -0.104883015 -0.11583513
-0.05800446 -0.1148176 -0.0068409108 -0.24943964 0.010754758 0.054124985 -0.07788621 0.0831779
0.019071296 0.025249897 -0.11387083 0.044125598 -0.07178918 0.028277248 -0.017470157 -0.026182381
0.062748395 0.032992795 0.0021077406 0.0090830205 0.073367834 0.020120842 0.045298416 -0.015234631
0.03268229 -0.036613103 0.065010056 0.0799351 -0.002800224 -0.02572253 -0.03597545 -0.046904005
0.0632283 -0.033316195 -0.0050758687 -0.062588595 -0.06268286 -0.075962655 -0.03176834 0.07726131
-0.061066493 0.039727446 0.08614132 -0.070395075 -0.284897 -0.24755108 0.0017088389 -0.0012659746
-0.089703254 -0.008390088 -0.0023678532 -0.1084672 0.06322256 0.092835635 -0.056850977 0.03407146
-0.067002095 0.03579155 -0.037577745 -0.03730561 -0.071536 -0.045847803 -0.042518 0.012107506
-0.025381356 -0.030455807 -0.09161436 -0.04501804 0.09348334 0.12574461 -0.0045867655 0.04656567
0.120153576 -0.027448423 -0.02834577 0.06216867 0.060815673 0.022291357 -0.107337594 0.017751448
-0.0074109696 -0.02952715 -0.075253785 -0.13651273 0.0714552 -0.060961924 -0.049932916 -0.06537974
0.0009780885 0.030318877 0.100365296 0.06735066 0.051088482 -0.14967075 0.12666808 0.07015892
-0.051881835 0.05309947 -0.052630838 0.0970128 -0.0035377978 0.037737545 -0.022677166 0.024946027
0.0072163185 0.06314091 -0.052022874 -0.032805227 0.14886564 -0.035049856 0.05074561 0.025867281
0.061086237 0.020686673 0.056164492 -0.0533134 -0.026523182 -0.05709727 0.08637571 0.08794987
-0.017208077 0.04526868 -0.0013617119 0.050274815 -0.1351143 -0.011957904 0.048196264 0.01288443
0.10366304 -0.007555698 0.09956952 0.051799916 -0.01667384 0.09227691 0.021351669 0.027286107
0.007622436 0.044305734 -0.02532892 0.008901034 -0.026755411 0.035077367 -0.074746974 -0.10801212
0.070000224 -0.09635644 -0.06441221 0.059732657 0.02695012 0.021032931 0.055271912 0.043866064
-0.033426598 -0.08501544 -0.048909497 0.097574934 -0.062384192 -0.02025623 -0.005791215 -0.02926276
-0.065831564 0.06347721 -0.14714263 0.022321071 0.03421567 -0.060886078 0.04525684 -0.013889396
-0.07548051 -0.009894846 0.098465174 0.08070706 -0.08213529 0.019344926 0.09283758 -0.10133332
0.011550095 0.0014715065 -0.010575461 -0.07609811 -0.0994082 0.034877498 -0.052754734 -0.10478972
-0.07296073 0.06909572 -0.052663375 -0.10330387 0.053685527 0.028280383 -0.009991681 -0.06764417
00000000: 4dbc babd 5768 e3bb 3690 5a3d cb39 ad3d
00000010: 2b5d a6bc 1f2f 093b 43e4 9fbd 50c4 abbd
00000020: f0b6 903c 2b79 fbbd d039 f33c 7e33 39bd
00000030: 3405 25bd f86f 843d 3d2f 7a3b 1a87 a4bd
00000040: 01ae c6bd e6bf 20be c322 68be b0c0 c33b
00000050: 875e 733c 59dd 53bd c502 e03d 3e81 983c
00000060: 7da0 ecbc 4d66 50bd a409 f4bc c341 1cbd
00000070: c200 813d 3d24 5cbd c21e 3cbd 8827 903d
00000080: 737e 12bd bc13 e1bd 682a c9bc bd22 6fbd
00000090: 0f05 72bd 8a54 4f3d 4bb6 2abd 7a40 aabc
000000a0: aeff e93d 2e04 7b3d e5de d0b9 689f 8d3d
000000b0: a943 9f3d 9c6f efbb 891b 003d 7045 36bc
000000c0: 3e0d 1abb f589 153d 6888 7dbd 292a a7bd
000000d0: 2576 6f3d 1566 e6bd 10b1 a23c 4248 13be
000000e0: 4252 e33d d369 9e3d ac62 cebd 4010 8dbc
000000f0: 3a73 a0be 3bdf aa3c e8cc d6bd f83a edbd
00000100: 1696 6dbd 7d25 ebbd b829 e0bb 1b6d 7fbe
00000110: b934 303c 29b2 5d3d ce82 9fbd 2d59 aa3d
00000120: 683b 9c3c dfd8 ce3c 1c35 e9bd 0bbd 343d
00000130: 3506 93bd b0a5 e73c 931d 8fbc 6f7c d6bc
00000140: 3b82 803d 7423 073d 0522 0a3b f3d0 143c
00000150: e041 963d 77d4 a43c d58a 393d ac9a 79bc
00000160: dddd 053d 9ff7 15bd fe23 853d 04b5 a33d
00000170: f783 37bb 0eb8 d2bc fe5a 13bd 6a1e 40bd
00000180: d77d 813d 9076 08bd 7953 a6bb 732e 80bd
00000190: df5f 80bd 4f92 9bbd 851f 02bd 2d3b 9e3d
000001a0: dc20 7abd 3fb9 223d dc6a b03d 4b2b 90bd
000001b0: 05de 91be 087e 7dbe 1efb df3a 0fef a5ba
000001c0: 57b6 b7bd 9476 09bc fc2d 1bbb 0d24 debd
000001d0: d47a 813d 9c20 be3d 92dc 68bd 848e 0b3d
000001e0: 6538 89bd 299a 123d 1feb 19bd c4cd 18bd
000001f0: 7781 92bd e8ca 3bbd 5b27 2ebd 905e 463c
00000200: 90ec cfbc 757e f9bc 4fa0 bbbd d664 38bd
00000210: 3274 bf3d 32c3 003e 944c 96bb a5bb 3e3d
00000220: 1413 f63d 84db e0bc 6335 e8bc 93a4 7e3d
00000230: db19 793d 5d9c b63c d0d3 dbbd 7c6b 913c
00000240: b8d7 f2bb ece2 f1bc a81e 9abd fec9 0bbe
00000250: 1b57 923d 36b3 79bd 7586 4cbd d0e5 85bd
00000260: 3433 803a 4b5f f83c 528c cd3d 25ef 893d
00000270: 2842 513d 4a43 19be 47b5 013e 7baf 8f3d
00000280: 0c82 54bd d47e 593d 6f93 57bd a6ae c63d
00000290: 66da 67bb af92 1a3d 77c5 b9bc 9c5b cc3c
000002a0: de76 ec3b 0550 813d f015 55bd c65e 06bd
000002b0: 3c70 183e 7090 0fbd a1da 4f3d 9fe7 d33c
000002c0: 9035 7a3d 1977 a93c bd0c 663d 275f 5abd
000002d0: 2547 d9bc d4de 69bd c0e5 b03d 101f b43d
000002e0: f4f7 8cbc a76b 393d 787b b2ba f7ec 4d3d
000002f0: 675b 0abe 16eb 43bc 7269 453d 3719 533c
00000300: 4a4d d43d ca95 f7bb 1beb cb3d 262c 543d
00000310: 9497 88bc adfb bc3d b2e9 ae3c 1d87 df3c
00000320: a1c5 f93b ee79 353d 987e cfbc a4d5 113c
00000330: 2a2e dbbc 49ad 0f3d f114 99bd 7535 ddbd
00000340: 475c 8f3d 8656 c5bd 8cea 83bd 3baa 743d
00000350: 80c6 dc3c 414d ac3c cd64 623d e7ac 333d
00000360: 54ea 08bd 931c aebd 5355 48bd 5ed5 c73d
00000370: 9186 7fbd 65f0 a5bc 3cc4 bdbb 75b8 efbc
00000380: b3d2 86bd 5700 823d 8fac 16be aeda b63c
00000390: bb25 0c3d ae63 79bd 3c5f 393d 5990 63bc
000003a0: 8795 9abd fe1d 22bc 1ca8 c93d be49 a53d
000003b0: 8c36 a8bd 4079 9e3c a121 be3d d887 cfbd
000003c0: 9c3c 3d3c 91df c03a b344 2dbc 53d9 9bbd
000003d0: 8796 cbbd b5db 0e3d 5915 58bd fe9b d6bd
000003e0: 6f6c 95bd 0f82 8d3d 8db5 57bd fb90 d3bd
000003f0: 5be5 5b3d 43ac e73c 26b4 23bc 0789 8abd

dec.0.bias f4 [32]
-0.07257715 0.28635463 0.1898456 -0.18901582 0.24140926 -0.046045866 0.3197637 -0.1995541
0.21381506 0.25180516 -0.18101129 -0.24325632 -0.16972391 0.2910239 -0.12692827 0.22587085
0.30456558 0.27722192 0.12587246 0.05021767 0.19009401 0.31117144 -0.09891535 -0.05136826
-0.20632234 -0.18664894 0.20918193 0.17690477 -0.15879579 -0.16957487 -0.16994746 -0.1620568
00000000: 54a3 94bd 139d 923e e366 423e 5d8d 41be
00000010: fd33 773e 979a 3cbd 11b8 a33e e957 4cbe
00000020: 56f2 5a3e 9bec 803e 065b 39be 2f18 79be
00000030: 1bcc 2dbe 1601 953e 7cf9 01be b04a 673e
00000040: 05f0 9b3e 08f0 8d3e b6e4 003e 0bb1 4d3d
00000050: 01a8 423e dd51 9f3e 2294 cabd 8667 52bd
00000060: 2a46 53be e620 3fbe ca33 563e 8626 353e
00000070: 5d9b 22be 09a5 2dbe b506 2ebe 38f2 25be

dec.2.weight f4 [1, 32, 1, 1]
-0.013369311 0.1983702 0.17881769 -0.14935993 0.23268807 -0.21313179 0.14158471 -0.15260622
0.19585508 0.18131092 -0.20070557 -0.07656385 -0.07291297 0.22002965 -0.14564961 0.08506002
0.18798594 0.1410696 0.06682157 -0.0026757307 0.13880573 0.1486292 -0.13669631 -0.20070085
-0.08985798 -0.14356773 0.092833735 0.15184146 -0.044200607 -0.2104341 -0.15154132 -0.10292301
00000000: f40a 5bbc 8f21 4b3e fc1b 373e cff1 18be
00000010: c845 6e3e 383f 5abe 95fb 103e ce44 1cbe
00000020: 3c8e 483e 92a9 393e c385 4dbe 82cd 9cbd
00000030: 6553 95bd 744f 613e 2c25 15be f333 ae3d
00000040: 637f 403e 8d74 103e bfd9 883d 505b 2fbb
00000050: 1723 0e3e 4132 183e 1efa 0bbe 8684 4dbe
00000060: 7607 b8bd 6b03 13be 9d1f be3d 547c 1b3e
00000070: b20b 35bd 097c 57be a62d 1bbe 4dc9 d2bd
